rnakinet/models/rnakinet_r10.ckpt (torch, 808157 bytes, 63 tensors)

head.0.weight f4 [8, 1, 3]
000000 3e d8 63 3e 93 cf b8 bd 65 e4 10 3e 79 4b 3b bc
       0.22250459 -0.09023967 0.14149626 -0.011431568
000010 42 37 f1 bc 47 81 eb 3e e9 67 28 bc bf 69 30 bd
       -0.029445294 0.45997068 -0.01027868 -0.043069597
000020 66 7e dd be d6 59 b5 be f4 0b 52 be 0a 13 0d 3f
       -0.43260497 -0.35420102 -0.20512372 0.55107176
000030 d8 64 09 3e ba 96 10 3e b3 ca b8 be 64 b8 7f be
       0.13417375 0.14119998 -0.36092147 -0.24972683
000040 2e 50 82 3e 95 4d a7 be 04 47 2e be ae 55 bd 3d
       0.25451797 -0.32676378 -0.17019278 0.09244858
000050 f5 f6 f6 3d 95 89 3d bd c5 da e8 3e d0 d7 ba be
       0.12058822 -0.046273787 0.45479408 -0.36492777

head.0.bias f4 [8]
000000 9e e6 c3 3d 8c 7a 86 be 46 43 98 be 50 c7 32 bb
       0.09565471 -0.2626537 -0.29738826 -0.0027279444
000010 9c 0e 12 be cc 98 f0 be d0 9c 03 bd 8c bf d8 3a
       -0.14263386 -0.46991575 -0.03213197 0.0016536578

head.3.weight f4 [16, 8, 3]
000000 de cb 26 be 0e de f6 bd cc 94 05 3e da d9 c3 be
       -0.16288707 -0.12054072 0.13045043 -0.38252145
000010 94 89 2d be 31 74 4b be 7e 01 3f 3e 4a a6 0f 3e
       -0.16947013 -0.19868542 0.18652913 0.14028278
000020 06 4d 98 be 5a 60 97 3e 73 d5 02 3f 3e de 94 3e
       -0.29746264 0.29565698 0.5110695 0.29075807
000030 f4 a2 cf 3e 7f be c0 3e 4c 08 69 3e a8 94 24 3e
       0.4055401 0.37645337 0.22757071 0.16072333
000040 62 db ab 3e 73 81 b6 bd bc ae 6b 3a 92 66 10 bb
       0.33565813 -0.08911409 0.0008990576 -0.0022033793
000050 db 94 a5 3c 51 4b 6c 3e 5a de 01 be 61 3a eb 3e
       0.020212581 0.23075606 -0.12682477 0.45942977
000060 d6 df ff be 17 9e d6 be fe 0e 59 3d 64 f0 30 3d
       -0.4997546 -0.41917488 0.052992813 0.043198004
000070 82 27 7b 3d 96 f9 b3 bb bc f2 cb 3e 0d 33 04 3f
       0.061316974 -0.0054923994 0.3983363 0.516404
000080 9b 51 2c 3e 36 b8 b6 ba 99 3d a3 3d bf 32 98 3d
       0.16828005 -0.0013940397 0.07970733 0.07431554
000090 57 a0 0d 3f 5d 88 43 3e 97 49 da 3d 8f a0 75 3d
       0.55322784 0.19094987 0.106585674 0.059967574
0000a0 67 8a c4 3e 8c 0f 10 3c ed cd a2 be 16 2a a9 be
       0.38386843 0.008792769 -0.31797734 -0.33039922
0000b0 0d ff 05 3e 63 f7 f8 bd 30 e1 7d be 38 e2 27 bd
       0.13085575 -0.1215656 -0.24792933 -0.040987223
0000c0 9d da 71 be a0 2d d3 be 09 dc 50 bf 5f 0e 61 be
       -0.2361855 -0.41245747 -0.81585747 -0.21978138
0000d0 6d 42 63 be 54 ec 1a 3d 2c d4 75 3e d7 e0 cc bd
       -0.22193308 0.037823036 0.24006718 -0.10003822
0000e0 a0 e2 8a be a2 0f 92 bb 88 f6 17 3e af 53 98 bd
       -0.27126026 -0.00445743 0.14840138 -0.074378364
0000f0 16 45 17 3f 27 57 41 3e 0f 7b 8f bd 7d 77 e0 3d
       0.5908979 0.18880902 -0.070058934 0.109602906
000100 c4 59 42 3e fc 28 9e be 7f 44 a5 3e 11 ca 55 bd
       0.18979555 -0.30890644 0.3227882 -0.05219466
000110 68 99 3c be 0b ec 4c 3e 81 e9 ab be a2 01 37 be
       -0.18417895 0.20011918 -0.33576587 -0.17871717
000120 a5 0f e1 3d d7 90 a2 be 2f 52 77 3e b6 86 1f be
       0.10989312 -0.3175113 0.24152444 -0.15578732
000130 b5 8c c8 be 6f e0 d7 3d 19 7e 6b 3e 25 06 b6 3e
       -0.3916985 0.10540854 0.22997321 0.35551563
000140 7c 8b ed 3e 02 f9 3e be 78 fd 0e be db b5 01 be
       0.4639548 -0.18649676 -0.13963878 -0.12667029
000150 d7 50 02 3f 91 86 3d 3e ad f1 52 3e 83 44 58 be
       0.509046 0.18508364 0.20600004 -0.21119885
000160 e5 b9 c9 3e d0 61 06 3f d2 bf 53 3e a3 b8 83 be
       0.3939964 0.52493 0.20678642 -0.25726804
000170 15 c9 89 be 4b e8 04 3e aa 5e 5b be 15 be 19 bf
       -0.26911226 0.12979238 -0.2142283 -0.6005567
000180 79 62 93 3d 76 8c 5c bd 2e 08 c9 bd 9b 10 57 3a
       0.071965165 -0.05384489 -0.09816013 0.00082040735
000190 80 10 e5 bc 45 46 8a bd 75 98 a3 bd 4a 35 7d bd
       -0.02796197 -0.06751684 -0.07988063 -0.0618184
0001a0 d3 37 9f bd 94 bc b2 3c 05 1f 38 bc e5 08 bc bd
       -0.077743195 0.021818437 -0.011237864 -0.09181384
0001b0 d6 27 ce bd a8 83 a6 bd 85 48 37 bd 45 47 1e bd
       -0.10066192 -0.0813058 -0.044746894 -0.038642187
0001c0 3a dc 75 bd a4 8d 24 3d da 51 1a be f8 71 a9 ba
       -0.060024478 0.04017414 -0.15070286 -0.0012927642
0001d0 e6 13 fc 3c 82 82 e5 bd 61 c4 00 3d b4 48 bd bd
       0.030771207 -0.11206533 0.03143728 -0.09242383
0001e0 59 12 95 be f3 b3 e1 be ff 57 f6 be ac 73 0c 3d
       -0.2911556 -0.44082603 -0.4811401 0.03429
0001f0 3a 08 46 be 0f 7a 7d be 5d f3 73 3c f3 2e 69 3d
       -0.19339076 -0.24753593 0.014889565 0.05692954
000200 5e ee aa 3d 3f 0d 9d be 13 7c e7 bd f9 c6 e2 bc
       0.08346246 -0.30674168 -0.11302962 -0.027682768
000210 a6 91 7b 3e 33 aa 1c bd 80 7b a6 3d c8 b7 38 bd
       0.24567279 -0.038248252 0.081290245 -0.045097142
000220 9f 12 9c 3e d2 fc 99 3e 87 bc 49 be ef d3 f0 be
       0.30482957 0.300757 -0.19700824 -0.47036693
000230 0c cf bd bb 14 cc 93 3e 04 f2 09 bf e3 2b 0d bf
       -0.005792504 0.28866637 -0.5388491 -0.5514509
000240 d5 48 32 bf 70 30 da bb fd 1b 5e 3e d1 3a 4b bf
       -0.6964238 -0.006658606 0.21690364 -0.7938662
000250 c3 e3 9d bf 79 0b 66 bf 85 fd 2c 3e 44 f1 4d be
       -1.2335132 -0.89861256 0.16893585 -0.20111567
000260 e6 21 53 be 73 95 b8 3e da 71 3f 3e 48 8a 81 bc
       -0.206184 0.3605152 0.18695775 -0.015813008
000270 37 0b ae bc de 4a a5 3e a1 30 78 3e 0a 93 e5 3c
       -0.021245582 0.32283682 0.242373 0.028024215
000280 de c5 86 bc ba 79 85 3e d9 02 1d bd a5 97 3b 3e
       -0.016451772 0.26069432 -0.038332794 0.18319567
000290 77 06 ec 3d 37 aa 07 bf f4 85 de be 45 c8 b5 be
       0.115246706 -0.529941 -0.43461573 -0.35504356
0002a0 8e 2b 1b 3e 5e be 7d 3e f8 4e f7 3c f4 e1 cd 3e
       0.15153334 0.2477965 0.030189022 0.4021145
0002b0 b0 75 89 3e a1 1b 7b 3e c5 3c 70 be 72 95 b3 bd
       0.268476 0.24522258 -0.23460682 -0.08768739
0002c0 91 d8 0d 3e b6 26 ca 3c 60 0b 99 bc a5 0c 02 3d
       0.13852145 0.024676662 -0.018682182 0.03175034
0002d0 80 8e d8 be cc 7f 27 bf a2 82 3c be 37 09 45 be
       -0.4229622 -0.6542938 -0.18409207 -0.19241796
0002e0 56 fd 83 be f5 d5 86 3e a4 2c cc 3c 37 b3 06 3d
       -0.25779217 0.2633511 0.02492363 0.032885756
0002f0 62 34 65 3c ff 93 f5 3d 14 67 16 3e 5d ab 55 3d
       0.01398954 0.11991119 0.14687759 0.052165378
000300 90 83 3c bd 1a ab 80 bd 46 50 c7 bb e9 ca 5a 3e
       -0.046023905 -0.06282635 -0.0060825674 0.21366467
000310 5b 2a 2d 3d 33 ae 80 be 8b 4e 18 3e a2 23 92 be
       0.04227672 -0.25132903 0.14873712 -0.2854281
000320 52 ff 4f 3e 77 96 34 3f 21 4f 34 3e d6 c4 6c 3e
       0.2031224 0.7054209 0.1760831 0.23121962
000330 2a 63 c6 bd 49 fa 43 bd 4c a2 07 3f e4 63 c3 3b
       -0.09686883 -0.047846112 0.5298202 0.0059628356
000340 49 0f 1f be 30 0c 93 3c 37 40 de 3d 89 96 2c 3c
       -0.15533175 0.017950147 0.10852092 0.010533937
000350 d7 5c 17 be 25 10 0e 3e e2 b6 a6 3e 79 52 02 3e
       -0.1478151 0.13873346 0.32561404 0.12726773
000360 db bb 96 3c aa 3b 0f 3e b9 6e 2c 3e 7b 55 cb be
       0.018400123 0.13987604 0.16839112 -0.39713654
000370 81 cd aa bd df 32 b9 bd 82 01 e2 3d 1c 9a 32 bd
       -0.08339978 -0.09042906 0.11035444 -0.043604
000380 91 18 58 bd f7 0c fd 3e d2 ed d5 be 16 08 f5 be
       -0.052757803 0.49423954 -0.41783005 -0.47857732
000390 f3 fe bf bd 37 6a 1e 3e db ad 56 bd 48 2d 08 3e
       -0.093747996 0.15470205 -0.052411895 0.13298523
0003a0 76 aa 8b be 22 c7 d4 bc 5a 5d 83 3e 7d 23 46 3d
       -0.2727849 -0.02597386 0.2565716 0.048373688
0003b0 b7 7b 31 3c 7f 3e 31 be 77 d1 93 be 99 55 52 be
       0.010832719 -0.17308997 -0.28870746 -0.20540465
0003c0 c0 f0 81 3d a2 67 e5 bb 93 f4 8b bd 23 ea 15 be
       0.063447475 -0.0070008794 -0.06833758 -0.14640097
0003d0 22 cd 0d be 52 95 0d be 4d c3 6f be 49 d4 4b be
       -0.13847783 -0.13826492 -0.23414345 -0.19905199
0003e0 d1 c1 34 be 77 47 dc bd a4 ea d9 bd 61 7b 92 bd
       -0.1765206 -0.10755818 -0.10640457 -0.07152439
0003f0 f0 6e dc 3d 84 09 43 be 68 2e 1e be 8d a5 2b 3d
       0.10763347 -0.19046599 -0.1544739 0.04190593

head.3.bias f4 [16]
000000 9c d4 8d bd b0 8a 20 3e 19 9e 7f be d8 91 87 bc
       -0.06925318 0.15677905 -0.24962653 -0.016549036
000010 af b9 d1 bd 94 f9 8f be 4f 0f fe 3d e9 c6 1f be
       -0.102404945 -0.281201 0.12405264 -0.15603222
000020 d5 1b a3 bd 53 a7 c4 bb 95 34 79 bc fc ec 37 bd
       -0.07964293 -0.006001392 -0.01521029 -0.04490374
000030 c6 05 73 be 9d 15 20 be d3 22 e9 bd a8 61 2f be
       -0.23732671 -0.15633245 -0.11383595 -0.17127097

head.6.weight f4 [32, 16, 3]
000000 7e 1a 96 be 44 f9 49 3e 22 36 4c bd a7 53 2f be
       -0.29317087 0.19723994 -0.049856313 -0.17121755
000010 79 44 0c bb 81 e1 95 bd 3c 8c 86 3e 5b d6 a9 3e
       -0.0021403118 -0.07318402 0.26278865 0.33171353
000020 29 be d7 3e 08 3d 7e bc 4d 6f 48 3e ca 99 62 bd
       0.42137268 -0.015517481 0.19573708 -0.055322446
000030 68 ef 89 bd 14 13 39 bd 36 62 ac bd 68 82 74 3d
       -0.06735116 -0.04518421 -0.0841717 0.059694678
000040 c9 50 03 3f 7d ad bb 3e d4 5f 3f be 87 a8 7e be
       0.51295143 0.366558 -0.186889 -0.24868976
000050 8f c8 9f bb 13 ef 2e be d5 3b a3 3d 38 a0 21 3e
       -0.0048762034 -0.17083387 0.079703964 0.15783775
000060 bd 68 4d be e7 66 1a 3e b0 39 13 bb d4 40 2f bd
       -0.20059486 0.15078317 -0.0022464804 -0.042786434
000070 c6 72 23 3d 86 d4 2b 3e d6 24 87 3d 42 04 9f 3d
       0.03990438 0.1678029 0.06598823 0.07764484
000080 0a 02 98 3d 37 b9 6d be 5e b9 be 3d c9 1c 03 3d
       0.07422264 -0.23215185 0.093127 0.032009874
000090 d6 df 40 3e 7a 0e fd 3e 5e 13 b4 3e fc 27 f7 3c
       0.18835387 0.49425107 0.35171026 0.030170433
0000a0 5f f9 8f 3d 81 3c 42 3b 29 cc 00 be 49 f1 28 3e
       0.07029986 0.0029638114 -0.12577881 0.16498293
0000b0 ab 6e 0d 3e 4a 3e 64 3d df 2e 6e 3e 6c 51 85 3e
       0.13811748 0.055723466 0.23260067 0.26038682
0000c0 c9 99 9a 3c 28 a9 28 bd ca 96 a4 bd aa f6 c0 bd
       0.018872159 -0.041176945 -0.08036573 -0.094220474
0000d0 75 6d d1 bd 3d db e8 bd 4d 75 de bd ee ca ac bd
       -0.102259554 -0.113699414 -0.10862217 -0.08437143
0000e0 f0 6c 13 3d 1c 19 ae 3c dc 8b ab bd 06 be 89 ba
       0.035992563 0.021252207 -0.083762854 -0.0010508902
0000f0 ac 4f 16 3c be b0 38 bd a0 be 23 3d 82 96 5f bd
       0.009174269 -0.04509043 0.039976716 -0.054586895
000100 64 9f 94 bd e9 f7 06 bd 89 c6 c2 bd 09 14 8b 3c
       -0.07256964 -0.03295127 -0.09510524 0.016977327
000110 ef b0 b7 3b 48 eb 87 bd 51 8d ee 3c db 99 c9 bc
       0.005605809 -0.06636673 0.02912012 -0.024609497
000120 a4 d9 42 bb 59 e9 3e bd 98 7d a6 bd 6c 49 63 3d
       -0.0029731775 -0.046609256 -0.08129424 0.055489942
000130 21 3b e8 bc 48 de e8 bd bd 71 a7 3d 81 1e 9e 3d
       -0.028348507 -0.11370522 0.08175991 0.07720662
000140 19 19 72 3d 92 d2 2a bd 12 fa af bd 65 b0 33 3c
       0.059105966 -0.04170472 -0.08592619 0.010967349
000150 bb 5c 23 3c ec f6 ac b9 57 14 02 bd f7 01 8a 3d
       0.009970839 -0.00032990368 -0.03175768 0.06738656
000160 cf 40 b2 3b 8e 9b 80 bd 1b 18 3e 3d be 3a 0d 3d
       0.0054398547 -0.0627967 0.046409708 0.03447985
000170 f7 e3 e2 bc 9a 02 03 3d cf 03 35 bc 05 d4 90 bd
       -0.027696593 0.031984903 -0.011048271 -0.070716895
000180 51 dd 1c be 1a 3f 9b bd 79 a5 55 bd 7d 7a 32 bf
       -0.153188 -0.07580395 -0.05215976 -0.6971815
000190 6c d8 1e be 81 70 a4 bc 5a 67 29 be 91 ac 95 bd
       -0.15512246 -0.020073177 -0.16543332 -0.07308305
0001a0 33 46 18 3f 1a 49 14 bf 65 9b b9 3e 6d 20 83 3e
       0.59482116 -0.57924044 0.3625137 0.25610676
0001b0 7e 42 81 3d d9 3e 2d 3d 0f 99 80 3d 24 37 11 bf
       0.063115105 0.042296264 0.062791936 -0.5672476
0001c0 44 98 0b 3f 41 fe a1 3e 1e 86 e4 3c 5e 75 ce 3d
       0.54529214 0.31639293 0.027895983 0.1008098
0001d0 d3 61 d0 3a f6 2c e5 bd 22 54 71 3c 48 2d 6e 3d
       0.0015898295 -0.11190216 0.0147295315 0.058148652
0001e0 f6 08 27 3e 4e 54 c3 3d 04 8e dd ba c0 2b 77 be
       0.16312012 0.09537564 -0.0016903286 -0.24137783
0001f0 f8 b0 b5 bd 21 e0 3f bb 35 d9 d4 3c d7 20 05 3c
       -0.08871645 -0.0029277878 0.025982479 0.008125505
000200 55 13 6e 3c ca 0e 9a be e6 c1 d7 3a b8 bf 14 3d
       0.014530976 -0.30089408 0.0016460984 0.03631565
000210 05 86 2a bf 0e 0a 8c 3e ed 11 9a 3e 5e 35 b1 3c
       -0.6661075 0.2735142 0.300918 0.021631893
000220 3c e1 92 3d f3 e5 85 3c 18 bb 5d bf dc 9c 7e 3d
       0.07171866 0.016345 -0.8661361 0.06216131
000230 14 5b c7 3e 07 a4 79 bf 36 91 82 3e 33 81 c9 3e
       0.38936675 -0.9751591 0.25501412 0.39356384
000240 26 c5 fd be 42 f7 05 bf d1 f2 2f bf eb 6f 0b be
       -0.49564475 -0.5233041 -0.68729883 -0.13616912
000250 bf ce 2c 3c 95 b5 d7 3d 83 8f 86 3c 8a 89 a1 3e
       0.010547339 0.10532681 0.016425854 0.31550246
000260 5d 54 f4 bb a3 ef 8e bd d2 63 89 3d b3 60 12 3d
       -0.007456346 -0.06979301 0.06708492 0.03573675
000270 2f dc 9d 3d 22 89 7c bd 37 b1 0b bd 5d ef 54 bd
       0.07708012 -0.061654218 -0.034104552 -0.051986087
000280 ce 19 b8 bd da d4 b9 bd 27 d8 25 be f5 c3 c6 3d
       -0.08989297 -0.09073801 -0.16195737 0.097053446
000290 ce 04 10 3e c2 56 43 3d 8f 75 d1 3d 48 9b 30 be
       0.14064333 0.04769016 0.10227501 -0.17246735
0002a0 85 d7 06 bf 1e 5b 18 bf 1d 98 3a bf 1b 43 19 be
       -0.52672607 -0.59514034 -0.72888356 -0.14967005
0002b0 ba b1 25 be 18 91 5a be 43 f9 bf bd 63 be 9a 3d
       -0.16181079 -0.21344411 -0.09373715 0.07555845
0002c0 61 d3 8f 3d 32 be 47 be 2d 84 be bd c7 f2 36 3b
       0.07022739 -0.19506148 -0.09302554 0.0027915703
0002d0 c9 54 ca bc ea 15 5a 3e 9a 9a 34 3e 11 54 d1 3c
       -0.024698632 0.21297422 0.17637101 0.025552781
0002e0 7c 59 9b 3b 7a fd 57 bd 7d e3 14 3e fc 3b 00 3c
       0.004740892 -0.05273197 0.14539905 0.007826801
0002f0 d7 3d 29 be 41 68 d3 bd ec 6f 86 3e 9d 1c a0 3e
       -0.16527496 -0.10322619 0.26257265 0.3127183
000300 78 b8 82 bd 92 4d 9c bd 48 57 0c be de 36 a1 3d
       -0.06382841 -0.07631983 -0.1370517 0.07871793
000310 f2 0b 7c 3e c1 61 4b bc a9 ca 51 be 2a cc 8d bf
       0.24613932 -0.012413443 -0.20487465 -1.1077931
000320 1f a2 99 be 5c 03 1d 3e 6c c1 48 3e 8e d5 b6 be
       -0.300065 0.15333313 0.19605035 -0.35709804
000330 ad de 8e bc 96 06 91 bc 4c f9 8b 3d 91 f5 97 be
       -0.017440164 -0.017703336 0.06834659 -0.2967954
000340 0d 45 9a bd 0c 5d 56 be 20 79 dc 3d c1 a7 6a be
       -0.07532702 -0.20933932 0.1076529 -0.22915556
000350 71 a8 6f be 81 d8 4c be 61 10 2f 3e c9 61 62 3e
       -0.23404099 -0.20004465 0.17096092 0.22107615
000360 d1 a2 1f be 73 49 db bc 7a 9e 9b 3c 0f 16 7a be
       -0.15589453 -0.026768422 0.018996466 -0.24422477
000370 8a f6 b2 3e 40 f9 62 be ed 0b 0c 3e 43 cb c0 3d
       0.3495372 -0.22165394 0.13676424 0.09413769
000380 5f f7 06 3e 96 d7 81 bc 06 1b 90 3d d5 c4 1e bd
       0.13180302 -0.01584987 0.07036404 -0.038761932
000390 c0 07 73 3d be 14 97 3e 1a 0f 59 3d 11 a3 00 3d
       0.059333563 0.29508013 0.052992918 0.031405512
0003a0 cb 1f 2a 3d af 2d 0a 3d b9 84 29 bd 82 87 67 3d
       0.041534226 0.033734974 -0.04138634 0.056525715
0003b0 b8 64 ce bd d0 e7 90 bd cf f8 1c 3e d1 1a 27 3c
       -0.10077804 -0.07075465 0.15329288 0.010199265
0003c0 60 6c 52 bc 56 b7 eb bd 46 a0 51 3d 26 4a 62 be
       -0.012843221 -0.11509578 0.05117824 -0.22098598
0003d0 a8 8c c4 3d f3 2d b8 3e 04 d0 88 3e 08 6e fd bb
       0.095971406 0.35972556 0.26721203 -0.007734064
0003e0 83 52 48 bf 8b 3b b6 be ae f9 4f 3e af fe 5c 3e
       -0.782509 -0.35592303 0.20310089 0.21581529
0003f0 f6 fe 7f 3d 90 f4 bc 3d 81 fd 7e 3c db 6e a0 be
       0.06249901 0.09226334 0.01556337 -0.31334576

head.6.bias f4 [32]
000000 3d 84 c3 be c2 80 3d bd 67 00 1d 3e 5c be 21 3e
       -0.38186827 -0.04626537 0.15332185 0.15795273
000010 19 53 9e bd cd cb 26 bd 15 22 18 be ce 4d a1 be
       -0.07730693 -0.040721703 -0.14856751 -0.31504673
000020 0b 33 50 bd 9b 26 87 bd 4e aa 8e bd f6 ed 6b be
       -0.05082993 -0.0659916 -0.06966077 -0.23039994
000030 51 7b 48 bd fd 77 4b 3b 12 d7 09 be 25 37 84 bd
       -0.04894573 0.003104686 -0.13460949 -0.064558305
000040 9a 8c da bd 41 f5 9d be a7 a5 d9 bd 96 7a 0d 3e
       -0.10671349 -0.30851176 -0.10627299 0.13816294
000050 1f f1 22 be 84 7f b3 3d 15 1d 3f 3e 0e 32 44 3e
       -0.15912293 0.08764556 0.18663438 0.1915972
000060 0e cb 05 bf 40 df 01 bd 60 73 e9 bd 0a ec 32 3d
       -0.5226296 -0.03170705 -0.11398959 0.043682136
000070 d6 45 95 bd 65 73 92 bc bb 81 0e bc 80 8a 74 bd
       -0.07288711 -0.01787729 -0.008697922 -0.059702396

head.9.weight f4 [64, 32, 3]
000000 53 69 b4 bb a6 e0 9d bd e7 ea 40 bd f7 a3 0c 3d
       -0.0055057197 -0.07708864 -0.04709902 0.034336057
000010 2f d8 ed bc 5d b5 2e 3b ec f8 98 bd 41 e8 16 bc
       -0.029033748 0.0026658394 -0.07469353 -0.009210647
000020 47 e6 00 be 14 30 9b bd 64 f2 f7 3b cb 07 7f bc
       -0.12587844 -0.075775295 0.007566737 -0.015565823
000030 fd b9 f6 3b ba d5 ba bc ba 6b aa bd 8e 62 8f bc
       0.0075294957 -0.02280699 -0.083213285 -0.01750305
000040 22 9a 51 3c e3 52 44 3d 46 72 fc ba 1a ef 15 bc
       0.012793096 0.04793061 -0.001926013 -0.009151245
000050 60 26 25 3d f3 f7 a9 bc 22 2c 50 bd fa 5f 29 3c
       0.0403198 -0.020748114 -0.05082334 0.010337824
000060 62 dc de bc e0 e6 36 3c c2 0c c3 bd 16 fc e6 bc
       -0.027204696 0.011163443 -0.09523918 -0.028196376
000070 3b 11 1e 3d ee d0 69 3d 01 17 48 bd af 32 7a 3c
       0.03859065 0.057084017 -0.048850063 0.015270873
000080 bd ce 79 bd a9 81 6a 3b f3 ba b9 bd cb 2d 9a bc
       -0.060988177 0.003578285 -0.09068861 -0.018820664
000090 02 90 6c bb 32 ca 23 3d 11 51 22 3d 4b 05 01 bb
       -0.0036096578 0.03998775 0.039628092 -0.0019686993
0000a0 01 3f e7 3c d3 ac 04 bd e9 3f f1 bd 11 4f 06 bd
       0.028228285 -0.03239138 -0.11779768 -0.032790247
0000b0 c7 b4 9a bc be f5 1f 3d 49 85 6f 3b fd 11 33 3d
       -0.01888503 0.039052717 0.003654795 0.043718327
0000c0 07 ed 1d bd ca fb 19 3b 10 60 d6 bd fa 9a 9c bd
       -0.038556125 0.0023496025 -0.10467541 -0.07646747
0000d0 06 f1 10 bd 6d d2 d1 bc ed 6c 68 bd ca 3a 3d 3c
       -0.035386108 -0.025613034 -0.056744505 0.011549661
0000e0 18 ab 81 bd 4e fd f8 bb be 36 fc bc ff 89 df 3c
       -0.06331462 -0.0075985556 -0.030787822 0.027287481
0000f0 6b be 9e bd 65 0d 2e 3d 13 33 ac bb c3 d5 c3 bc
       -0.07751163 0.042493243 -0.005255112 -0.02390564
000100 79 7f 1b 3d e6 72 48 bb d3 9a 3c bb 3c 9d ae bd
       0.037963364 -0.0030586063 -0.0028778806 -0.08526084
000110 86 a2 3a bc e8 ff 6a 3c 21 6d bc bd 4b ef a0 bd
       -0.011391288 0.014343239 -0.09200502 -0.078581415
000120 b6 58 00 3d 8e 11 72 bc 9d c4 cd ba 89 31 84 bd
       0.0313346 -0.014774693 -0.0015698854 -0.064547606
000130 e3 e1 34 bd 84 22 51 bc 7c 17 c2 bd 59 f1 03 bd
       -0.044160735 -0.012764577 -0.094771355 -0.03221259
000140 9f 1b 29 bd 1b 84 64 bc 9a bc ab bd 1f 58 49 3d
       -0.041286107 -0.013947512 -0.08385582 0.049156304
000150 3a ab 4e 3d 04 b2 c5 bc 09 24 5c 3d 2f 71 b4 bd
       0.050456263 -0.024132736 0.053745303 -0.088106506
000160 fc 21 24 3c f7 34 80 bd 0e 57 df 3b ec 81 a2 bc
       0.010017868 -0.06260102 0.0068157976 -0.019837342
000170 f1 9c c8 3c a2 21 51 bd 34 7d 39 bd ef 0b bd bd
       0.024488898 -0.051057465 -0.04528542 -0.09230792
000180 ab 90 43 3d 7e 03 39 3d a3 16 4b 3c 5d be ae bb
       0.047745388 0.045169346 0.012395534 -0.0053327517
000190 a3 d2 3a bd a5 1b 37 3d c9 39 53 bd ef 9c 21 bd
       -0.045611035 0.0447041 -0.05156878 -0.039456304
0001a0 67 6d cd bd c3 91 fc bc 71 88 66 3b 6a fd 33 bc
       -0.100306325 -0.030831223 0.003517654 -0.010985712
0001b0 a8 64 cd bd 6c b2 88 bc 07 1a a5 3c 09 ec 5a bd
       -0.10028964 -0.01668664 0.020154012 -0.053447757
0001c0 52 7d 7c bd 90 fb cc bc 93 f9 06 3c 13 a0 ac bd
       -0.061642952 -0.025022298 0.008238214 -0.08428969
0001d0 b7 c3 7b bd 8f 20 84 bd 5b 86 66 3d 60 72 9d 3c
       -0.061465945 -0.064515226 0.056280475 0.019219577
0001e0 19 71 81 3c 26 19 41 bd 86 aa 96 bd 5e 2c 62 bd
       0.015801 -0.047143124 -0.073567435 -0.055218093
0001f0 5c 55 b8 bc 35 3a 69 bd c1 2b 40 bd af 51 85 bb
       -0.02250164 -0.056940276 -0.046916727 -0.0040685753
000200 61 4f 1b bc 5d e6 06 bd f7 c3 31 bd 9f ec 8c 3c
       -0.009479375 -0.032934535 -0.043399777 0.017202673
000210 9e ea c2 bc 41 45 52 bd aa 8e 41 3c e3 ce a0 bc
       -0.023793515 -0.051335577 0.011813799 -0.019629901
000220 0e 55 56 3c 58 36 83 bd b4 ac 37 bd ee ff 07 bc
       0.013081802 -0.064068496 -0.044842437 -0.0083007645
000230 f0 d4 e6 bd 5d e8 12 bd c2 6c 1b bd 7d d6 17 bd
       -0.11271083 -0.03586613 -0.037945516 -0.037069786
000240 f3 90 96 bd 96 b2 06 bd e0 32 e4 3c bd 0b 34 bd
       -0.073518656 -0.032885157 0.02785629 -0.043956507
000250 c9 45 71 3d ef 62 b8 3c 86 33 1e 3d 4d 7b 10 3d
       0.058904443 0.022508113 0.038623355 0.03527384
000260 59 83 61 3c bc 09 61 bd ac cd 06 bc b9 db 54 3c
       0.013764226 -0.054940924 -0.008227747 0.012991839
000270 60 67 8a bc 5a 33 ec bc 3f 52 fb 3b 7b 13 1a bd
       -0.016894996 -0.02883308 0.0076697166 -0.037616234
000280 66 e3 fb bc 10 f3 07 bd ba 7e 9e 3c 96 ae 9c bb
       -0.03074808 -0.033190787 0.019347537 -0.0047815545
000290 f6 1a 60 bc da 40 07 bd 94 29 aa 3c cd 62 5f bd
       -0.013678303 -0.03302083 0.02077178 -0.054537583
0002a0 c3 7a a1 3c 94 47 ae bc 06 3b 6e bd ad 0f cf bb
       0.019711858 -0.021274365 -0.058161758 -0.0063190074
0002b0 38 39 d6 bc cc dc c6 bc fe 85 40 bd ce 35 26 bd
       -0.02615033 -0.024275206 -0.047002785 -0.040578656
0002c0 c3 73 b4 bc 6d c0 1a bd 6b f5 bb bd 96 25 3b 3c
       -0.022027856 -0.037781168 -0.09177669 0.011422535
0002d0 c0 0c 24 bd 70 e4 7c 3d 93 59 03 3d f5 41 d8 bb
       -0.04005122 0.061741292 0.032067847 -0.0065996596
0002e0 aa 70 2d bc 30 6d 75 bd 09 1a 82 bd 13 bb 7d bd
       -0.010585943 -0.059918582 -0.06352622 -0.061945986
0002f0 99 cb ed bc 02 4b 7b bc 1a c7 7f bd 0e 92 b1 bd
       -0.029027747 -0.0153377075 -0.062445737 -0.08670436
000300 ef 57 a7 3c c5 1c 6f bd a7 b0 27 bd df 01 fb bb
       0.020427672 -0.058377046 -0.040939953 -0.007660135
000310 4f af 75 bd 26 0e 3d bc 29 8a 90 3a d5 4e cd bd
       -0.05998164 -0.011539018 0.0011027503 -0.10024802
000320 6f 5c 9e 3c 8b ed 9f 3c 69 ac e1 3c 3d b1 52 bd
       0.019331185 0.019522449 0.027548032 -0.05143856
000330 87 be aa 3b 04 c4 05 bd 71 ec ac bc fa e2 90 bc
       0.005210701 -0.03265764 -0.021108838 -0.017686356
000340 3c d4 43 bc 6a 59 14 3d f9 a0 3e bd 2b f8 8a 3b
       -0.011952456 0.036218084 -0.046540234 0.0042410097
000350 8a 83 b4 3c b4 a5 a5 3c a0 e7 09 bd e6 16 e0 3c
       0.022035379 0.020220615 -0.03366816 0.027354669
000360 41 53 f3 3b 2b 47 82 bb 03 17 a1 bd 09 a5 f1 bc
       0.007425696 -0.003975769 -0.07865717 -0.02949764
000370 eb 60 3e 3d a5 c0 f9 bc 8b 5c 3c 3b 5e 59 78 bd
       0.046479147 -0.030487368 0.0028741683 -0.060632102
000380 4b 78 1f 3d 42 7e 36 3c b8 4f 1a 3a 08 2f a8 bb
       0.03893308 0.011138501 0.0005886513 -0.0051325597
000390 c7 f4 5c 3d 4c f7 0b 3d 0f 8e 08 bd 9d ef a3 bc
       0.053944375 0.034171388 -0.033338603 -0.020011717
0003a0 16 fb 23 bb 54 62 ae bd 06 8f af bd da c9 b5 bc
       -0.0025021485 -0.08514848 -0.085722014 -0.022190977
0003b0 e2 27 84 bd 72 b0 52 bb 1f f4 83 3d 08 4a 3b bd
       -0.064529195 -0.0032148627 0.06443047 -0.0457249
0003c0 8d 4a 2d bd fb 91 2a bc ba f3 53 bd fd 72 2f 3d
       -0.042307425 -0.010410781 -0.051746108 0.04283427
0003d0 d5 d8 ad bc 7d 27 72 bd 31 9e 82 bd 23 b1 1c 3d
       -0.021221558 -0.05911969 -0.06377829 0.03825487
0003e0 85 bb 54 3d b4 bb 94 bc 6e c5 1d 3d 19 2e eb bb
       0.051936645 -0.01815591 0.03851836 -0.007177126
0003f0 3e ff da ba 65 71 60 bc 52 5a 89 3c 17 67 e7 bc
       -0.0016708148 -0.01369891 0.0167667 -0.0282474

head.9.bias f4 [64]
000000 1c 3d 22 bd 65 cf e2 bc 1e 4d d6 bd ee eb ab bd
       -0.03960906 -0.027686784 -0.10463928 -0.083946094
000010 a5 40 a8 3d 02 2b d9 bd 7c a5 87 bd ff a3 ec bc
       0.08215455 -0.10603906 -0.066233605 -0.028886793
000020 a0 48 7d bd 97 8a b7 be 95 ca c7 bd e1 68 93 bd
       -0.06183684 -0.35847923 -0.09755436 -0.071977384
000030 9a 91 1c bd 51 a0 79 bd a9 fb 96 3d 5f 6e 50 be
       -0.038224794 -0.060943905 0.07372219 -0.20354603
000040 39 89 82 3d 76 57 9f bd 2b fe 69 be af 4c c0 bd
       0.063738294 -0.07780354 -0.22850864 -0.09389626
000050 7a 61 a1 bd 55 fc d9 bd 64 9f 80 be 42 14 3f be
       -0.0787992 -0.10643832 -0.25121605 -0.18660071
000060 05 5a 28 be ea 8f aa bd 55 9b 44 3d 00 ed 2c be
       -0.1644059 -0.08328231 0.0479997 -0.16887283
000070 27 30 46 bd 03 15 1a 3e 16 6e dd bd b6 46 3e 3e
       -0.048385765 0.15047078 -0.10812013 0.18581662
000080 55 70 5c 3d cf 55 af bc ed ba 21 be 47 bb 01 be
       0.053818066 -0.021403221 -0.15793963 -0.12669097
000090 5f 69 52 be 76 a1 7d bd f5 69 30 3b cc 2e ae 3c
       -0.20548008 -0.06192156 0.0026918624 0.021262549
0000a0 7a d2 3c 3e 9f 82 7b be 16 9b 78 bd e4 ef e0 bd
       0.18439665 -0.24561547 -0.060694776 -0.109832555
0000b0 2d 34 42 be 5d 51 5a bd c2 b2 1a be 00 cb da bd
       -0.18965216 -0.05330025 -0.15107253 -0.106832504
0000c0 e2 1d 91 bc aa cc 00 3e a0 10 01 3b 24 99 9e bd
       -0.017714445 0.12578073 0.0019693747 -0.07744053
0000d0 93 6f 92 be a0 dd 41 bd 4f 7d 98 bd 71 81 df bc
       -0.2860075 -0.0473305 -0.07445776 -0.027283402
0000e0 c0 c1 5d bd 53 ff 59 bc b7 ac 77 bd d5 83 45 bd
       -0.054139853 -0.013305503 -0.060467448 -0.048221428
0000f0 f2 58 24 bd 21 d4 e0 bd 87 9e 4f bd 16 a5 4d be
       -0.040123887 -0.109779604 -0.050688293 -0.20082507

head.12.weight f4 [128, 64, 3]
000000 e4 0e 44 bc b3 2e e6 3c e7 d7 a1 bc 66 95 3c bd
       -0.011966441 0.02809844 -0.01975627 -0.046040915
000010 d9 11 24 bd ac 01 5e bc 1b e0 ce 3c ee 3a 9e ba
       -0.040056083 -0.013550203 0.025253346 -0.0012072006
000020 92 f6 9f 3c 22 df 0c bb 4c a2 a1 3b 06 87 2d 3d
       0.019526754 -0.0021495302 0.0049326774 0.042365097
000030 4e 47 3b be a2 3f 78 3d 72 23 56 3e 35 a8 70 be
       -0.1828892 0.06060756 0.20911959 -0.23501666
000040 db 6f 2d bd af 4e 43 3d e2 b3 19 bf aa af 4e 3e
       -0.042343 0.04768246 -0.60040104 0.20184198
000050 39 76 f4 3d 19 21 dd 3b b0 41 2a bd 06 f5 4f 3d
       0.11936612 0.0067483303 -0.04156655 0.050770782
000060 d9 b3 ed 3c 87 6c 3d bd ef 2c 3c bd 3d 77 e3 bd
       0.029016422 -0.046246078 -0.04594129 -0.11106727
000070 d5 d3 1a 3e 9f 8a 30 be 61 b7 11 bd 11 0d 3b 3d
       0.1511987 -0.1724038 -0.035575274 0.045666758
000080 93 eb 1a 3d 60 f2 e8 bd a7 69 46 bc ec 3b 5f 3e
       0.037822317 -0.11374354 -0.01211015 0.21800202
000090 7a 0b 5d bd c8 b7 b5 3b 58 fd 06 bd db 88 28 3d
       -0.053966023 0.00554559 -0.03295645 0.04114614
0000a0 76 5f 99 3d 15 75 6d 3d e0 0b 4a bd 2d 5f 0f be
       0.07488911 0.057972986 -0.04932773 -0.1400115
0000b0 f8 b9 80 bd 37 f8 77 3e 29 f6 1f be af f6 08 bf
       -0.06285471 0.2421578 -0.15621246 -0.5350141
0000c0 42 ce d6 3e 5c ab 3e be 8c ab 0c 3e f5 b7 17 bd
       0.41954237 -0.18620056 0.13737315 -0.03704067
0000d0 69 21 95 3d 97 aa fa 3d 1a 8c 6e bd 35 4d 8d 3d
       0.07281763 0.12239569 -0.05823908 0.06899492
0000e0 fa 22 ef bc a9 b1 80 3c 81 9b 3f 3c 32 16 b2 bb
       -0.029191483 0.015709715 0.01169479 -0.005434775
0000f0 35 07 c3 bc d3 35 31 bd b7 7e df 3b 29 81 d4 3e
       -0.023807148 -0.04326422 0.0068205255 0.4150479
000100 be a8 3e 3e fe f2 04 bd 30 56 9b bd dd be 61 3e
       0.18619058 -0.032458298 -0.07584798 0.22045465
000110 c2 4f 8b bd db 0f 89 be 21 b6 ee 3d 40 02 f7 bc
       -0.06802322 -0.2676991 0.11655832 -0.03015244
000120 86 8b 4c be bc 30 83 bb ee e6 07 3d af 90 c8 bb
       -0.19975099 -0.0040036123 0.033179216 -0.0061207633
000130 a7 c1 48 3d fe 94 40 3d 42 32 66 3d b2 96 82 be
       0.049012806 0.04701709 0.056200273 -0.25505596
000140 f0 a5 25 bd 60 83 a6 be 2f 3c 81 3d 96 b2 73 3d
       -0.040441453 -0.32522106 0.06310307 0.059496485
000150 23 66 03 3c 60 75 29 3c f4 2a 9b bc f2 5f 95 be
       0.008019957 0.010342926 -0.01894138 -0.29174763
000160 48 dc 18 3e 48 82 22 3d 5d 84 3f 3c e2 c0 5e 3c
       0.1492778 0.039675027 0.011689273 0.0135957915
000170 b8 5b 19 3d b3 af 50 be 40 2c aa 3d 98 2f bf 3d
       0.037440985 -0.20379524 0.08309221 0.0933525
000180 aa 65 6a bd 45 ba 60 be a8 63 05 bd fb e7 00 bd
       -0.05722586 -0.21946056 -0.032565743 -0.031471234
000190 d8 75 c1 ba 05 c0 10 bd 1a ff b6 be f2 ba 85 be
       -0.0014759852 -0.035339374 -0.35741502 -0.2611919
0001a0 06 5b 8a bd ec 7f 10 bd ab 99 03 3d 9f 34 3b 3d
       -0.067556426 -0.035278246 0.03212897 0.04570448
0001b0 d2 0b 72 bd 3a 8d 2c 3e 59 b8 11 bf 8a 8d cb 3c
       -0.059093304 0.16850749 -0.5692192 0.024847765
0001c0 0e a3 86 3c d1 a2 0b 3e 6e a0 7f bd 18 f3 91 3d
       0.016435172 0.13636328 -0.062408857 0.071264446
0001d0 49 89 e2 3d c9 f1 8d be ad 0c 80 3e a9 86 c0 bd
       0.11061341 -0.2772353 0.2500967 -0.094006844
0001e0 cb f8 13 3e 90 1b 17 3d 23 20 01 bf 1b 9e 5b be
       0.14450376 0.03689152 -0.5043966 -0.21447031
0001f0 4f 0d 4c 3e dc a4 6e be 11 67 07 bf 69 41 c4 bc
       0.19926952 -0.23305076 -0.5289164 -0.023956971
000200 a1 0e 07 3e aa 0a 99 bd 61 00 a9 3e 9c 88 ef be
       0.13189174 -0.07472737 0.33008102 -0.46783912
000210 35 73 4f 3d 1d 6c 55 be 1d c5 ce be 8d 10 ac bd
       0.05064698 -0.20842023 -0.4038476 -0.08401594
000220 78 df a2 be aa 27 e7 3c 37 bf 0c bf e5 ab 56 3e
       -0.31811118 0.028217155 -0.5497927 0.2096401
000230 8b 98 69 be e8 c5 81 bd 2b 7e 0a 3e a7 1c ac be
       -0.22812097 -0.06336576 0.13524692 -0.3361561
000240 3b ed 90 bc 9b 64 91 bb 61 3d fa bc 15 8a a9 be
       -0.017691245 -0.004437042 -0.030546846 -0.3311316
000250 38 dd 8b 3c 4b 5e bb 3e f9 b4 a9 be 31 bc 78 3e
       0.017073259 0.36595377 -0.33145884 0.2429054
000260 f9 59 92 be 94 77 75 bd 00 69 fc bc 73 c3 60 bc
       -0.2858427 -0.05992849 -0.030811787 -0.013718474
000270 37 df 81 3d f7 c0 a0 3d b8 8d 2c be 1e a8 84 be
       0.06341403 0.07849305 -0.16850936 -0.25909513
000280 fa b8 88 bc d4 64 45 bd fc 31 22 bc cd a3 f6 bb
       -0.016689766 -0.04819186 -0.0098996125 -0.007526851
000290 3c 90 6b bd 83 47 b5 3c bd 32 27 3d ec 61 fd bc
       -0.0575106 0.022128826 0.040819872 -0.030930482
0002a0 9e 4c a9 3e 11 e6 d6 bc 40 3e 74 be f8 52 11 be
       0.33066267 -0.026232751 -0.23851871 -0.14191806
0002b0 1f d0 5f 3e 72 85 11 be f5 b1 84 3d 2f 02 cb 3c
       0.21856736 -0.14211062 0.06479255 0.024781315
0002c0 cf 3b 59 bc a1 cc e8 bc 78 08 99 3b 6b e9 da bc
       -0.013258888 -0.028417887 0.004670199 -0.02672263
0002d0 99 ff cb 3c 9a e4 6c bb 33 92 cd bc 92 ef 04 be
       0.024902152 -0.0036147 -0.025094127 -0.12982014
0002e0 d9 6c 16 be 38 44 b8 bd 4b 98 e2 3c ac a9 84 3a
       -0.1468996 -0.08997387 0.02766051 0.0010121367
0002f0 27 8b c0 ba 41 7f d6 bd 9b bc 7c be ed d5 18 3e
       -0.0014689908 -0.104734905 -0.24681322 0.14925356
000300 4c d2 33 3d 15 7e 17 3d 7b 55 74 bb 18 4d 10 3d
       0.043901727 0.036985476 -0.0037282396 0.035229772
000310 50 26 85 3c 3f fb 60 3b 47 d8 da 3c f9 85 18 bd
       0.01625362 0.0034329442 0.026714457 -0.03723714
000320 49 f7 20 bc 29 62 05 bd 74 e4 dd 3c 16 85 6d 3c
       -0.009824582 -0.032564316 0.027086474 0.014497062
000330 34 6e 72 bd 3b b9 f2 bc 0f 3c ac bc dc 05 3b 3b
       -0.05918713 -0.02962934 -0.021024732 0.0028537428
000340 11 8f 88 bb 72 25 5a bc 0b 7d 4c bc 04 38 27 bc
       -0.0041674455 -0.013314592 -0.012480984 -0.010206226
000350 19 8c d2 bb 5d a4 b5 3c c0 df 10 bd a6 74 b5 3c
       -0.0064253923 0.022173101 -0.035369635 0.022150349
000360 b2 fb fc 3c 67 f2 99 3c bf 23 8c 3b bd b5 e7 3c
       0.030881736 0.018792344 0.004276722 0.028284902
000370 06 07 be bc a6 de 91 3c 39 5f 52 bc 68 a7 1c 3d
       -0.023196708 0.017806362 -0.012840086 0.03824559
000380 4b fb 13 3c 54 e3 ca 3c 51 2e 38 bd 67 e0 1e 3d
       0.009032081 0.024766602 -0.044966046 0.038788226
000390 26 c1 b0 3c b5 cd c9 3c ff c8 2c 3d 8a 47 aa 3c
       0.021576475 0.024634222 0.042183872 0.020786066
0003a0 8d 97 06 bd 0d 78 41 3b 71 c8 78 bd 09 89 3f bd
       -0.032859374 0.0029521019 -0.06073803 -0.046761546
0003b0 56 a4 03 bd 33 9d c2 3c 71 6e 81 bc 11 12 16 3c
       -0.032139145 0.023756599 -0.015799733 0.009159581
0003c0 81 f0 3b 3c 39 f1 61 bd 11 75 26 bb f8 16 4f 3b
       0.011470915 -0.05516169 -0.0025399367 0.0031599384
0003d0 dd 7f 78 3c 65 90 84 3c b1 17 3a bd 5a a2 2b bd
       0.015167204 0.016182134 -0.04543275 -0.041902877
0003e0 49 e0 58 bd e9 64 a0 3c e9 13 2e 3d 32 a7 0b 3d
       -0.05294827 0.019579368 0.042499457 0.034094997
0003f0 96 d8 1e 3d 6e 19 4d ba ec 9c ae 3c a1 3f f0 bb
       0.03878077 -0.0007823919 0.02131506 -0.007331804

head.12.bias f4 [128]
000000 4a a5 61 bd 80 90 9c bd 2b 5b 76 3e e9 3b c2 be
       -0.055089273 -0.07644749 0.24058215 -0.37936333
000010 71 7a 82 be 54 05 80 bd a4 39 45 bd 68 6d 90 be
       -0.2548404 -0.06251016 -0.048150674 -0.2820847
000020 6d 47 22 bd 33 ed 41 3e 4d dd 1f bd 30 58 5a be
       -0.0396189 0.1893814 -0.03902941 -0.21322703
000030 2a 02 74 be b7 a2 0c bd 1b 37 01 bd d1 5b a3 be
       -0.2382895 -0.034334864 -0.031546693 -0.31905988
000040 ae 5a 4d bd 30 c8 4e bd 23 5b 6d bd 3c 77 96 bd
       -0.050135307 -0.050483882 -0.057948243 -0.07346961
000050 c9 a0 34 bd 22 03 57 bd 62 53 a6 bd aa e1 a6 3e
       -0.04409865 -0.052493222 -0.08121373 0.32594043
000060 1c 28 96 ba 3c 3d 19 bd df 78 13 bd bd 4c f8 bd
       -0.0011456045 -0.037411913 -0.036003944 -0.12124012
000070 40 34 73 bd 2d c2 97 bc 45 db 96 bd 52 f3 59 be
       -0.059376 -0.018525207 -0.07366041 -0.21284226
000080 fb bd bf bc b1 5c 8c bd 6e 91 a3 bd 2d 86 9a bd
       -0.02340602 -0.06853617 -0.07986723 -0.07545123
000090 77 d9 d0 bc 45 bf 97 3d 34 2b e6 bc f2 30 19 bd
       -0.02549432 0.07409529 -0.028096773 -0.037400194
0000a0 08 b0 4e 3e 3f 4c 24 bd 86 cb 75 bd 51 fe b2 3d
       0.20184338 -0.040111776 -0.06000855 0.08739913
0000b0 3e af 45 bd 62 3a ce bc 6a 73 33 bd 67 22 dd be
       -0.048262827 -0.025174323 -0.04381124 -0.4319031
0000c0 15 36 a0 bd 53 0d 25 bd 31 61 e1 bc 96 9f 90 bd
       -0.07822815 -0.04029591 -0.027512165 -0.070616886
0000d0 bf 0f c1 bd ce 75 9c bd ec 28 0e be 03 3a 68 bc
       -0.094268315 -0.07639657 -0.13882798 -0.014173987
0000e0 b7 7a 43 be 54 17 6d 3c 88 a7 1d 3e 4b 45 c8 3d
       -0.19089781 0.014470894 0.1539594 0.097788416
0000f0 a1 b7 b2 bd f7 23 85 3e 71 01 69 3e b1 09 87 bd
       -0.08726431 0.26004001 0.22754456 -0.06593645
000100 0b 75 37 be 3d c3 23 be 5c b0 c3 bd ad 30 46 bd
       -0.17915742 -0.15992446 -0.09555122 -0.048386265
000110 3c 4e 45 bd 8a d1 9e bd 04 7d df bc 1f 49 1e bd
       -0.048170313 -0.0775481 -0.027281292 -0.038643952
000120 4b 6d 73 bd aa 8f 02 be f0 62 5d bd 81 41 09 bd
       -0.0594304 -0.12750116 -0.054049432 -0.033509735
000130 70 d0 f0 3d b2 d7 92 bd a3 44 59 be 0f 4a 68 bd
       0.11758506 -0.07170047 -0.21217589 -0.056711253
000140 e4 cb c3 bd 1a 2e 2d bd c1 71 94 bd b6 93 68 be
       -0.095603734 -0.042280294 -0.07248259 -0.22712597
000150 85 e3 8d bb 65 9a b2 bd ae c9 4c 3e 5b 30 8e be
       -0.004330101 -0.08720855 0.1999881 -0.27771267
000160 77 d3 90 3c 1c 44 53 3d b7 29 56 bd 31 b1 4c bd
       0.01767896 0.051578626 -0.052285876 -0.04997367
000170 fb af 29 3e dc b9 b1 bd 10 51 a5 3e 44 4b 8a bd
       0.16571037 -0.08678028 0.32288408 -0.06752637
000180 6c 06 f5 bc 77 2e a9 bc 3c d9 5f bd 97 fe 36 be
       -0.029910289 -0.020652039 -0.05465053 -0.17870556
000190 8f b3 62 bd f0 ab 61 bd 11 c2 c8 bc eb f7 4a bd
       -0.05534702 -0.055095613 -0.0245066 -0.04955284
0001a0 37 09 d5 bd 63 f6 5d be 4b 10 55 bd dc c1 6a 3d
       -0.10402148 -0.2167602 -0.05201749 0.057313785
0001b0 34 2b 5f bd 47 2f b8 3e 3e a8 98 3e 2d 8d 4f bd
       -0.05448456 0.3597357 0.2981586 -0.050671745
0001c0 50 af a2 bd 20 24 c9 bc 18 3d ff bc fa 9e c4 bb
       -0.079435945 -0.024553359 -0.031157061 -0.006000397
0001d0 bc 2c df bc 41 86 5b bd 40 30 78 be e8 60 44 bd
       -0.02724301 -0.05359483 -0.24237156 -0.04794398
0001e0 cd 27 e3 bd 0c 51 45 bd 7b dc 9f bd 5f 13 ad be
       -0.11091576 -0.048172995 -0.07805725 -0.3380384
0001f0 d7 bb 99 bd 32 77 7f bd 66 7b 5f 3e b0 80 19 3e
       -0.07506531 -0.062369533 0.21824417 0.14990497

head.16.weight_ih_l0 f4 [96, 128]
000000 ca dd d0 3e ed 00 b2 bd d6 e0 5d 3f 9a b7 18 3f
       0.40794212 -0.08691583 0.866712 0.59655154
000010 09 fd 24 3e 6c 55 cb be 2b 00 30 3e 1d 01 23 3e
       0.1611215 -0.3971361 0.17187564 0.15918393
000020 08 2a 0e 3d e3 6e 70 3f d5 a3 22 bd 99 78 9d bd
       0.034708053 0.939192 -0.039707024 -0.07689018
000030 60 d0 97 3e 11 49 08 3d 3e e6 b7 3e 37 b2 42 3e
       0.29651165 0.033272807 0.35917848 0.19013296
000040 17 6a 60 3c 6b 05 ac bc 2a cc b9 3d 0b fb 9e 3d
       0.013697169 -0.020998677 0.09072144 0.077627264
000050 1e 95 c5 3c 23 53 a9 bd 9d fc 43 3f b0 ed 58 3d
       0.024118956 -0.0826781 0.7655733 0.05296105
000060 98 18 aa 3d 75 98 45 3d a9 61 69 bd 74 b8 af 3d
       0.08305472 0.048241097 -0.0569779 0.085801035
000070 06 f1 1a 3e 1c 6e fc bc d6 f9 74 3d a4 c8 37 3f
       0.15131006 -0.030814223 0.059808575 0.7179053
000080 75 42 07 bd 9f 5a cb bb 29 ed a1 3d 02 10 bc 3d
       -0.033022363 -0.0062058712 0.07906563 0.09182741
000090 c9 65 f3 3d 5d fb 41 3e 83 2a 34 bc ec b1 09 be
       0.11884648 0.18943544 -0.010996464 -0.13446778
0000a0 7f 43 89 bd 9b c9 a7 bb 36 f3 ba 3d 74 c6 c1 bd
       -0.06702327 -0.005120469 0.0912842 -0.0946168
0000b0 9b 1a 61 3c c1 e0 4e 3d ac 7f 7d 3d 1a e9 ad 3e
       0.013739253 0.05050731 0.061889336 0.33966905
0000c0 d6 cb 44 bd 50 4b b0 3e 8f f8 94 bd 8e 4c a0 bd
       -0.048045956 0.3443246 -0.07273971 -0.07827102
0000d0 13 54 8a 3d 60 ad 0d 3d 43 5f 7f 3e 38 90 0a 3e
       0.06754317 0.03458917 0.24938683 0.13531578
0000e0 79 5b cb bd 05 c6 df 3e 76 15 dd 3e 9d f4 31 be
       -0.099295564 0.43705764 0.43180436 -0.17378469
0000f0 b1 8b 80 3d 72 a8 7a 3e 4b f6 10 3e 2e bd 45 bd
       0.06276644 0.2447832 0.14156453 -0.04827612
000100 50 eb 66 3e 98 03 40 be 4a 00 80 bd 55 3c 10 be
       0.22550702 -0.18751371 -0.06250055 -0.14085515
000110 14 6b 09 3d df b6 1b 3c 7b 22 4a 3d 83 f1 a1 3e
       0.033549383 0.009504049 0.04934929 0.3162957
000120 12 8f 91 3d 77 ad 4d 3e f5 ab 86 3d 1a c3 65 3d
       0.071073666 0.20085703 0.06575767 0.056094266
000130 a4 1c 8b be 73 39 81 bc 0e 35 08 3e f5 4f 90 bd
       -0.2717029 -0.015774464 0.13301489 -0.070465006
000140 9d 5a b3 3c 9d c3 cf 3b 3e d4 a6 bd c9 7a 2a 3e
       0.021893794 0.0063404576 -0.08145951 0.16648401
000150 b6 7f 21 be 1a 04 d2 bd 7f 57 6d 3f 8d df 0c be
       -0.15771374 -0.102546886 0.92711633 -0.13757153
000160 bd e1 9e 3c a8 6c 5f 3e 1d 08 c9 3d 37 8e 9b bc
       0.01939475 0.21818793 0.098160006 -0.018988712
000170 c3 37 e2 3d 35 b4 17 3f 57 43 4a 3e 39 11 e3 bd
       0.11045792 0.5925935 0.1975225 -0.11087269
000180 fd 20 3f 3d 03 a8 a4 3d c6 1f 67 3c 5b 40 00 3f
       0.04666232 0.08039858 0.0141066965 0.500982
000190 81 42 b6 bd 93 ac c2 bd 86 c3 0a 3e 6c 8a a1 3e
       -0.08899403 -0.09505572 0.13551149 0.3155092
0001a0 17 aa 3f 3e 35 a8 37 be f0 85 80 bd b8 6f db bd
       0.18717228 -0.1793526 -0.062755466 -0.10714668
0001b0 15 09 3d bb e0 12 d3 3e ff 8e f1 3d 7f 13 99 bd
       -0.0028844525 0.41225338 0.117948525 -0.07474422
0001c0 ab 31 c4 bc df 52 b8 3c a6 5f ac 3d 57 62 84 3d
       -0.023949465 0.022500454 0.08416681 0.06464069
0001d0 0b 39 05 3d 91 5a 95 3d bc ed 19 3f 5b 67 dd bd
       0.032525104 0.07292665 0.6012838 -0.10810729
0001e0 1b 3b 02 3f a1 fa ed bd 22 86 c7 bd e0 92 9e 3e
       0.5087144 -0.11620069 -0.09742381 0.30971432
0001f0 e9 9e 96 3d c0 65 bd bd 2d d1 1a 3e 6b 03 4c 3e
       0.073545285 -0.09247923 0.15118857 0.19923179
000200 7e d5 68 3e 93 5b 35 3d d2 7c 92 3e c7 5e 18 3f
       0.22737691 0.044276785 0.28610855 0.5951962
000210 7e 14 8f 3e c9 e8 b5 bd 18 39 ee 3d 2b bd 4d bb
       0.27945322 -0.08882291 0.116319835 -0.003139327
000220 cf 75 55 3c bc 52 d6 3e 2f c6 32 bd 87 93 ac 3e
       0.013028576 0.41859996 -0.043646034 0.33706304
000230 7c f4 08 3f 10 21 25 3d b8 f0 70 3e da 7f c8 3c
       0.53498054 0.040314734 0.23529327 0.024475027
000240 98 d7 ef bc 44 e8 9b bc 95 74 4c 3d 37 67 10 bd
       -0.029277608 -0.019031651 0.04991587 -0.035254683
000250 df 2a 11 3d 17 72 4d bd 8c 3a 98 3e ff 11 1b 3e
       0.035441276 -0.050157633 0.29732168 0.15143584
000260 30 b0 6f 3e cf 58 e5 3b 00 88 54 bd 50 69 a5 3e
       0.23407054 0.006999112 -0.051887512 0.3230691
000270 8a b2 e3 3c 17 90 b0 3d 63 db 86 bd f6 fe 38 3f
       0.027795095 0.08621233 -0.065848134 0.7226404
000280 2e a4 41 3d 9b d0 00 3d 09 4c 9d 3c aa ba 0b bc
       0.047275715 0.03144894 0.019201295 -0.008528391
000290 33 57 8b bd 1c ef d0 3e bb 2b c7 bd 2f a2 4d bc
       -0.06803741 0.40807426 -0.09725138 -0.012550875
0002a0 77 1e b9 3e e7 ad f9 bd cf bf 04 bd ea 91 0a 3f
       0.36156055 -0.12191372 -0.032409485 0.541289
0002b0 35 56 56 bd bc 11 f7 3b 70 05 62 3d 8d 0e 0f 3f
       -0.052328307 0.007539956 0.055180967 0.5588158
0002c0 ce 9b 80 3d e4 60 cc 3e 14 9b d1 3d 01 0b 80 bd
       0.062797174 0.39917672 0.10234657 -0.06252099
0002d0 24 53 50 3d b5 56 fd 3d 6a 60 15 3e 5b 10 64 bd
       0.05086054 0.12370054 0.1458756 -0.05567966
0002e0 c1 ac d1 bd 6d 42 02 3f fe 02 bb 3e c8 66 b0 3e
       -0.10238028 0.5088261 0.3652572 0.34453416
0002f0 48 3c 0a 3e 54 0e 9c 3e 8e 22 8e 3e df 75 f8 bc
       0.13499558 0.30479681 0.27760738 -0.030329643
000300 d3 25 8c 3e e8 23 d0 3e 93 52 b3 3d 35 3c dc 3c
       0.27372608 0.40652394 0.08755984 0.026884178
000310 6c 97 6e 3d a0 bb 83 bd f1 18 b6 bd 01 ee 86 3e
       0.058249876 -0.06432271 -0.08891476 0.26353458
000320 98 db f1 3b 89 5b 8d 3e b2 28 a9 3e ea a3 36 3d
       0.007380914 0.27608898 0.3303886 0.044589914
000330 a1 aa 5c 3d bf 06 0f bd bd 21 07 3f 9f ba 80 bd
       0.053873662 -0.034918543 0.52785856 -0.06285595
000340 8c c6 9c bc 85 41 79 bc 84 9f d8 3d 32 d6 09 3f
       -0.019137643 -0.015213375 0.105773 0.5384246
000350 5e d6 b0 3e 1d 74 99 bd d6 50 f8 3e e0 b5 53 3e
       0.3453855 -0.0749285 0.48499173 0.20674849
000360 b4 a0 fd 3d 3c 0a 31 3e 02 2f d0 bc dd 97 44 bd
       0.12384167 0.1728906 -0.02541304 -0.04799639
000370 13 91 2b 3d 65 ed 6b bb 05 26 26 3d d9 69 ed bc
       0.0418864 -0.0035999652 0.040563602 -0.028981136
000380 67 46 d4 3d 3c 94 45 bc f4 1f 0d bc f5 48 b9 3e
       0.10364991 -0.012059268 -0.008613575 0.36188474
000390 81 77 63 bd 39 94 ba bd f4 e6 2f bd 19 61 be 3e
       -0.05553389 -0.091103025 -0.042944863 0.37183455
0003a0 22 7a dc 3e 62 af 80 3e e1 bd 60 bd 27 89 68 3e
       0.4306193 0.25133806 -0.054868583 0.2270857
0003b0 a3 be d4 3d 36 ee d0 3e 5b f5 62 3e 6d 3c 47 bd
       0.103879236 0.4080674 0.22163908 -0.04864161
0003c0 f2 f0 ce 3d b7 40 cc bd 4d d7 40 3c 73 65 bd 3d
       0.101045504 -0.09973281 0.011770082 0.092478655
0003d0 81 05 3f 3d 41 a3 b5 3d 42 3a 0f 3f ef 3a 69 bd
       0.04663611 0.08869029 0.5594827 -0.05694097
0003e0 e1 b4 15 3d 87 93 60 3c b1 c6 5d 3d f6 19 ce 3e
       0.036549453 0.013707048 0.054144565 0.40254182
0003f0 fb 7d e7 bc 84 d5 cd 3e 73 9d c3 3d 3e 29 90 3e
       -0.028258314 0.40201962 0.095515154 0.28156465

head.16.weight_hh_l0 f4 [96, 32]
000000 4c 96 91 3e a4 d4 75 3c 96 e9 80 3c b5 cf 10 be
       0.2843498 0.015004311 0.015736382 -0.14141734
000010 71 f5 28 be 36 4f ed 3c 1a 68 79 be d9 2b 69 3e
       -0.16499878 0.028968435 -0.24356118 0.22770633
000020 40 58 53 bc c2 61 b2 be 3d 80 8c 3d 73 20 79 be
       -0.012899458 -0.34840208 0.06860397 -0.24328785
000030 59 cb fc 3c b8 37 e0 3c 62 04 a4 3e f9 d3 4d 3d
       0.030858682 0.027370319 0.32034594 0.05025098
000040 e9 d4 22 be 65 45 fd 3e 2e 4c dc bd e1 f4 35 be
       -0.15901531 0.49467006 -0.107567176 -0.17769195
000050 e1 ce a3 3d 9e ec b2 bc 66 cd 8d be dc 6d 22 3e
       0.079984434 -0.021841343 -0.2769577 0.1586222
000060 60 f4 ec 3d 68 49 96 3d 6c 74 b6 3c e5 ce 62 be
       0.11570048 0.0733822 0.022272311 -0.22149237
000070 40 5a 39 3d 5b 5a 85 3e 63 39 c0 be ad ca 92 bd
       0.045252085 0.26045498 -0.37543783 -0.071675636
000080 0e dd bb 3e 6d bd 21 bb 66 74 5a be 98 c7 0b 3d
       0.3669209 -0.0024679557 -0.21333465 0.034125894
000090 0e 66 c9 bd 39 ac 44 3e 8f da d3 3d cc a9 bc 3e
       -0.098339185 0.19206323 0.10344421 0.36848295
0000a0 01 44 5e 3e 4c 2e 70 be c9 ab 8c be 03 b4 08 3d
       0.21705629 -0.23455161 -0.27474812 0.033374798
0000b0 7a e6 b1 be 2e 2a 95 be 63 ba e1 3d 3e c7 cc 3e
       -0.34746152 -0.29133743 0.110218786 0.3999576
0000c0 f1 02 3d 3d f1 e6 93 3e 8c c9 89 bd a8 e4 25 3c
       0.046145383 0.28887132 -0.06727895 0.010125317
0000d0 bc f4 87 be bb 04 43 3d 09 c6 fc bd 31 87 79 3e
       -0.26553905 0.047611933 -0.1234246 0.24367978
0000e0 17 50 80 3e 17 7d 0e 3f a6 9c 59 3e a2 9b 23 3e
       0.25061104 0.5565962 0.21251163 0.15977338
0000f0 ad d6 b9 3e 0f 16 6c 3e 7e 17 55 bd 65 ea 44 be
       0.36296597 0.2305529 -0.052024357 -0.1923004
000100 d6 c4 86 3e 15 ce 0b be d7 ba d6 bb 3b 7d 66 3e
       0.2632205 -0.13652833 -0.0065530348 0.22508709
000110 25 6b 45 3e 8f 41 34 3e de 55 69 be fc 6c 40 3e
       0.19279154 0.17603134 -0.22786662 0.18791574
000120 6e 1b e2 3c be 7f 27 be 4a f7 89 bd 3c 62 74 3c
       0.02760097 -0.16357324 -0.0673662 0.014915999
000130 0e d3 a7 be 78 f8 fa bd 7c 20 26 3e 67 c9 ec bc
       -0.3277821 -0.12254423 0.1622333 -0.02890463
000140 4e 50 b3 3e 27 96 ed 3d 9f ca 59 3d 9f de b4 bc
       0.35022205 0.11600905 0.05317175 -0.02207881
000150 24 e5 57 be cc 97 9b be a9 8a 23 be ea 03 77 3e
       -0.21083504 -0.3038925 -0.15970863 0.24122587
000160 a3 ff 53 3e 5e 08 05 3d 67 28 7b be 45 b8 8b bc
       0.20702986 0.032478683 -0.24527131 -0.01705564
000170 c9 43 0d 3d d7 63 1c 3e 41 c3 45 3e 77 94 19 bd
       0.034488473 0.15272461 0.19312765 -0.037495103
000180 4f e5 1c be 52 d4 91 bd 64 7d 77 3d 36 17 ba 3d
       -0.1532185 -0.07120575 0.060422316 0.090864584
000190 36 40 28 3e 4d 1d 41 bc 69 2f 43 3e a4 d5 aa bd
       0.16430745 -0.011786771 0.19061054 -0.0834153
0001a0 ec ab 95 be 49 3b 10 be ba 52 2a 3d 31 b5 9b 3c
       -0.29232728 -0.14085115 0.0415828 0.019007297
0001b0 cc 49 c3 bd dc 6c 04 be 78 bf 8d be 7a ea db 3d
       -0.0953556 -0.12932152 -0.27685142 0.10738082
0001c0 23 69 d1 3d fd 8b 17 3e c9 ea 0f bf 9b e9 f4 bd
       0.10225131 0.14799495 -0.5621763 -0.11958619
0001d0 75 de b1 3d 0a 64 12 3e 16 0d aa 3c e5 f8 e7 bd
       0.086850084 0.14295974 0.020758193 -0.1132677
0001e0 6b ff 90 bd f4 1d 9a bd f3 50 b2 be e1 10 79 3d
       -0.07079967 -0.07525244 -0.34827384 0.060807113
0001f0 6d 2b b9 bc ab e0 71 3e 5f 65 b4 3e d3 b5 05 be
       -0.022603715 0.2362086 0.3523359 -0.13057642
000200 80 53 29 3d 4e aa 1b be 20 b5 5d 3d bb 1f f0 3d
       0.041339397 -0.15201685 0.054127812 0.11724802
000210 8a 3c ab bd d3 d2 58 3e 70 73 23 3e 5c 0d 71 3e
       -0.08361156 0.21174173 0.15962005 0.23540252
000220 bf bd ac be cc 1b 88 3d 29 1b f9 3c f7 81 c3 3b
       -0.33738515 0.06645927 0.030408459 0.0059664208
000230 76 34 11 be 22 9e 1a be ed 0a d8 3d 6a 45 c5 3d
       -0.14180169 -0.15099385 0.10548959 0.0963238
000240 35 94 52 be cb 77 a5 3d 98 50 59 be ec fa b6 3e
       -0.20564349 0.08079489 -0.2122215 0.35738313
000250 cf dc 93 be d2 25 85 3d 5c d2 1b 3e 18 b7 da bd
       -0.288794 0.06501354 0.15216964 -0.106794536
000260 8f 4d 0a be b0 d5 dd be 91 1b 3e 3e b7 46 4d bd
       -0.13506149 -0.43327093 0.18565203 -0.050116267
000270 80 03 59 3d 01 5b a8 3d b7 3f 42 3e d2 49 85 bd
       0.052981853 0.082204826 0.18969618 -0.06508221
000280 52 7f c4 3d b4 e3 5b bd cf 20 3d be 51 3c 9d 3e
       0.09594597 -0.05368395 -0.18469547 0.3071008
000290 1a 28 97 3e 35 46 98 3e b6 19 28 be ea 0f 74 3e
       0.29522783 0.29741064 -0.16416058 0.23834196
0002a0 ad 31 65 be 73 31 c7 3b 30 14 a4 be 20 67 85 be
       -0.22382231 0.006078893 -0.32046652 -0.2605524
0002b0 d2 2b 18 bd ef fe 85 be fa d3 f7 3e fd be 07 3e
       -0.037151165 -0.2617106 0.48403913 0.1325645
0002c0 94 5e 5b bd 46 7a f5 3c 24 33 27 bd 97 bd d6 3d
       -0.053556994 0.029965531 -0.040820256 0.1048538
0002d0 3e 90 77 be f9 e0 b7 3d ca 28 eb bc 06 f3 72 bd
       -0.24176118 0.08978457 -0.028705973 -0.059313796
0002e0 a9 f6 d9 3d b6 50 c2 3e d2 5e 9b 3c 1d 72 d2 3e
       0.1064275 0.37952203 0.018966112 0.41102687
0002f0 99 48 73 3e d8 ab b2 3d f6 d8 e7 bd 61 ad 5c be
       0.23758163 0.08724183 -0.11320679 -0.21550514
000300 76 40 87 3d 2e 6c a6 bd b2 99 1a be 8e b7 24 3e
       0.06604092 -0.081261024 -0.15097693 0.16085646
000310 fd 6c 4c bd 3d 3c c9 3d 70 70 57 3d 00 c0 ce bd
       -0.049908627 0.09825943 0.052597463 -0.10095215
000320 0e 6d 85 3b 70 30 34 3f 69 0c 5d 3d 8c a3 28 be
       0.004071838 0.7038641 0.053966913 -0.16468638
000330 f5 c9 84 be 32 60 87 bd a7 12 a0 3e 29 a0 ca bd
       -0.2593533 -0.06610145 0.3126423 -0.098938294
000340 3e 88 c0 be 1a 1f 06 3d 65 44 f1 3e e2 4d b4 3e
       -0.37603945 0.032744505 0.47122493 0.3521567
000350 fb 3c 8f be 19 6f 8d 3d 08 e9 a7 3e 49 cd 05 3f
       -0.27976212 0.06905956 0.32794976 0.52266365
000360 56 76 f5 be 91 9b f4 3d fd 32 e5 3e 93 9b 22 bd
       -0.47941846 0.119437344 0.44765463 -0.03969915
000370 cf d2 8f bd 09 43 ce 3d 22 18 17 be db db f3 bd
       -0.070226304 0.1007138 -0.147553 -0.119071685
000380 98 b0 bb 3e 03 9a 47 bd b5 d9 3a be c2 2a 20 3e
       0.36658168 -0.04873086 -0.18247111 0.15641311
000390 ca f6 c0 bd 07 ab 03 3e 34 a1 c0 bd 33 1b b3 3e
       -0.09422071 0.1285821 -0.09405747 0.3498169
0003a0 05 5f 6e be bc 79 9f be 01 51 7e be 89 9f 93 be
       -0.23278435 -0.31147563 -0.24835588 -0.28832653
0003b0 3c 90 17 3d 7c 7e db bd 21 d9 80 3e 15 12 0c 3e
       0.037002787 -0.10717484 0.25165656 0.13678773
0003c0 36 e0 46 be 10 d2 c4 3e d2 8a 2a be f1 c6 aa be
       -0.19421467 0.38441515 -0.16654518 -0.33354905
0003d0 5e 08 7d 3e 02 af e4 3e bd 0a 9e 3e 8c 9c af 3d
       0.24710223 0.4466477 0.30867568 0.08574781
0003e0 0a 63 95 3d 30 55 06 3e eb 19 0c be 09 b9 80 3e
       0.07294281 0.13118434 -0.13681762 0.2514117
0003f0 b6 25 83 3e bb ea e8 3d 94 5e ff 3c 1f 72 34 bd
       0.2561471 0.11372896 0.031173028 -0.044054147
