rnamodif/checkpoints_pl/2022_mine_allneg/last-Copy5.ckpt (torch, 866348 bytes, 63 tensors)

head.0.weight f4 [8, 1, 3]
0.09132789 0.12146948 0.3281122 0.44526368 -9.7970034e-05 -0.41905123 -0.37759522 -0.21608764
-0.02724132 -0.38098645 0.21510127 0.144044 -0.20068802 -0.22671276 0.427114 0.22705895
-0.42431483 0.18917756 -0.42115098 -0.0033083172 0.003127575 -0.25444728 0.47323912 -0.23026438
00000000: 1e0a bb3d fec4 f83d 53fe a73e 9af9 e33e
00000010: 4375 cdb8 e28d d6be 2954 c1be 1446 5dbe
00000020: 3029 dfbc a810 c3be 8243 5c3e 4580 133e
00000030: 2981 4dbe 6427 68be b0ae da3e 2482 683e
00000040: cb3f d9be c3b7 413e 1aa1 d7be 5ad0 58bb
00000050: 00f8 4c3b ea46 82be 664c f23e 6dca 6bbe

head.0.bias f4 [8]
0.19357151 -0.10738871 -0.23782337 -0.043100398 -0.029236987 -0.03474103 -0.30552208 -0.14051588
00000000: 9c37 463e 9dee dbbd f887 73be 0b8a 30bd
00000010: 6882 efbc 9c4c 0ebd 646d 9cbe 65e3 0fbe

head.3.weight f4 [16, 8, 3]
0.052614562 0.043597817 -0.14520346 -0.27572942 0.16467492 0.020152356 -0.20285855 -0.30271232
0.45218688 -0.3874995 -0.6273587 0.7551929 -0.17712876 -0.035424408 -0.17532821 -0.2292478
0.1787967 0.23524691 -0.17128131 -0.41215423 0.69563186 -0.20493078 0.04572102 -0.16676672
-0.078067 0.01458637 -0.029639512 -0.35661784 -0.43560857 -0.090770915 0.15371828 0.2305578
0.24144705 0.13273981 0.099276826 0.04794619 0.06613117 0.027285017 0.052385565 0.32135433
0.25164178 0.01501775 0.18776985 0.26480854 0.30571437 0.1146508 -0.16143557 0.009787613
0.09114897 -0.124438554 -0.11101947 0.26677087 -0.091266476 -0.055380236 0.20139685 0.31957424
0.33085126 0.06743091 -0.022660578 0.03612676 -0.02327499 -0.05364671 0.18964773 -0.026198719
0.15299566 0.21003461 0.14758866 0.21444874 0.2054834 0.09128416 0.11380541 0.20958894
-0.143168 -0.81185985 -0.1767015 -0.12386342 -0.40243557 -0.30085716 -0.36369795 0.17545705
0.24274513 0.124313846 -0.075417474 0.07162383 0.5781064 0.038245395 -0.02511272 0.36367893
0.18841217 -0.032656897 -0.052885134 -0.029243015 -0.060946964 0.37727448 0.3776711 0.15675189
-0.20781463 -0.21824577 0.4050237 0.11699105 -0.093188815 -0.1607253 0.07568253 0.14176002
-0.15902045 -0.24766214 -0.16460289 -0.1656246 -0.3258913 -0.4356038 0.76502305 -0.33774388
-0.27485222 0.05695262 -0.027196186 -0.05611131 -0.03659403 -0.30308264 -0.13201758 0.3060402
0.1176993 -0.20803146 0.089784175 -0.082489476 -0.02076652 -0.09268764 -0.04598467 0.059227116
0.035075884 -0.0643408 -0.06491333 -0.40671968 -0.019589322 -0.11996745 -0.014403976 -0.8256629
0.795169 -0.23925605 -0.10836418 0.2441676 -0.13044478 0.09174139 0.12187773 -0.6765886
-0.18035446 0.08865523 0.13028014 0.12891184 -0.056074638 -0.08305785 0.09338591 0.11477738
-0.17526299 0.10832415 0.22407763 -0.047568865 0.26294288 -0.05308522 -0.11850316 1.0502268
-0.40617114 -0.200195 0.05139999 0.3660747 -0.22489905 -0.02630604 0.022070259 -0.15892865
-0.40832216 -0.94399285 -0.55500007 -0.16085197 -0.29455477 -0.17698817 0.41545272 -0.22399817
-0.20063137 0.41708034 -0.23463154 -0.10902866 -0.09141989 0.080308974 0.01636459 0.21152851
-0.05643712 0.018638087 0.6380018 -0.3127024 -0.33541283 -0.06866222 0.08909637 -0.0634159
0.21916278 0.31866634 0.116982244 -0.31485754 0.1256594 -0.09159236 0.52322525 -0.40586853
-0.06615632 0.43181866 0.25142267 -0.14280076 0.20339471 0.034845915 -0.012518596 -0.032147564
0.09304578 0.18918185 -0.024881693 -0.18403946 -0.17909771 -0.016080558 0.09036377 0.2837831
-0.053424545 -0.032072563 0.027151588 -0.4192498 0.076586984 -0.13152334 0.047842894 0.036426637
-0.050275765 0.33576927 0.124309085 0.3604618 0.4657681 0.3747975 0.5153451 0.92417955
1.272089 0.84722555 -0.04601084 0.013438251 -0.03565479 -0.42158923 -0.4534771 -0.47150448
0.19922757 -0.1039478 -0.10452276 0.09159116 0.79786587 -0.0651373 -0.43660364 0.13834469
0.33303493 0.12817352 0.17024074 0.062350206 -0.44817525 -0.17216092 0.060252268 0.06630193
00000000: 5e82 573d a093 323d 37b0 14be 682c 8dbe
00000010: 8ba0 283e 8e16 a53c 27ba 4fbe 1cfd 9abe
00000020: 0a85 e73e 5666 c6be 949a 20bf 5254 413f
00000030: 3e61 35be 2f19 11bd 3d89 33be efbf 6abe
00000040: 7b16 373e 91e4 703e 5e64 2fbe e105 d3be
00000050: ee14 323f 60d9 51be f745 3b3d e5c4 2abe
00000060: 97e1 9fbd acfb 6e3c 90ce f2bc 9d96 b6be
00000070: 1608 dfbe 1ae6 b9bd 5368 1d3e 5817 6c3e
00000080: e53d 773e f2ec 073e a651 cb3d 3963 443d
00000090: c76f 873d d484 df3c 3f92 563d 8e88 a43e
000000a0: 31d7 803e 020d 763c bd46 403e fc94 873e
000000b0: 9886 9c3e 0ace ea3d 5e4f 25be 395c 203c
000000c0: 50ac ba3d a4d9 febd 2d5e e3bd 3196 883e
000000d0: ebe9 babd 63d6 62bd fa3a 4e3e 3c9f a33e
000000e0: 5665 a93e 3819 8a3d ada2 b9bc a7f9 133d
000000f0: 31ab bebc a7bc 5bbd 0433 423e b29e d6bc
00000100: e5aa 1c3e 5013 573e 7b21 173e 7398 5b3e
00000110: 3e6a 523e 31f3 ba3d d012 e93d 7c9e 563e
00000120: a29a 12be 0cd6 4fbf 3df1 34be 1bac fdbd
00000130: 090c cebe f309 9abe 9e36 babe 03ab 333e
00000140: 2e92 783e 4298 fe3d 7a74 9abd 84af 923d
00000150: c8fe 133f 34a7 1c3d 31b9 cdbc 2034 ba3e
00000160: 1fef 403e 3dc3 05bd 159e 58bd 0c8f efbc
00000170: 86a3 79bd 1f2a c13e 1b5e c13e 9183 203e
00000180: 5ccd 54be d27b 5fbe 445f cf3e 0199 ef3d
00000190: c7d9 bebd 2c95 24be 71ff 9a3d 8a29 113e
000001a0: 42d6 22be 259b 7dbe a98d 28be 7f99 29be
000001b0: 39db a6be 7607 dfbe 8dd8 433f c4ec acbe
000001c0: 6eb9 8cbe 2747 693d 89ca debc f9d4 65bd
000001d0: 9fe3 15bd a62d 9bbe 9e2f 07be 4db1 9c3e
000001e0: 550c f13d 3306 55be c4e0 b73d 3ef0 a8bd
000001f0: 8d1e aabc 04d3 bdbd 6c5a 3cbd 2298 723d
00000200: bbab 0f3d 1cc5 83bd 48f1 84bd 903d d0be
00000210: c979 a0bc 7fb1 f5bd a7fe 6bbc a55e 53bf
00000220: 3290 4b3f 8aff 74be 0aee ddbd 1207 7a3e
00000230: 5193 05be e9e2 bb3d 089b f93d e934 2dbf
00000240: d7ae 38be e090 b53d 2868 053e 7701 043e
00000250: 85ae 65bd 3c1a aabd 1d41 bf3d 6710 eb3d
00000260: 2478 33be 0dd9 dd3d 9b74 653e 92d7 42bd
00000270: 73a0 863e e36f 59bd c9b1 f2bd d56d 863f
00000280: aaf5 cfbe ebff 4cbe cc88 523d 256e bb3e
00000290: f04b 66be c47f d7bc b0cc b43c 31be 22be
000002a0: 9a0f d1be 84a9 71bf 7c14 0ebf 61b6 24be
000002b0: e2cf 96be 633c 35be 38b6 d43e c75f 65be
000002c0: 4f72 4dbe 8e8b d53e 4043 70be 6b4a dfbd
000002d0: 5a3a bbbd 0879 a43d 080f 863c ee9a 583e
000002e0: 9c2a 67bd e7ae 983c 1654 233f 871a a0be
000002f0: 3bbb abbe c79e 8cbd 2878 b63d 32e0 81bd
00000300: 356c 603e 3c28 a33e 6394 ef3d 0235 a1be
00000310: dcac 003e c694 bbbd 17f2 053f 00ce cfbe
00000320: f77c 87bd 5617 dd3e 79ba 803e 5d3a 12be
00000330: b446 503e 97ba 0e3d cc1a 4dbc 2aad 03bd
00000340: c98e be3d e3b8 413e b1d4 cbbc d774 3cbe
00000350: 6465 37be 60bb 83bc a410 b93d 054c 913e
00000360: b2d3 5abd 855e 03bd 026d de3c e9a7 d6be
00000370: a3d9 9c3d 0eae 06be e9f6 433d 1934 153d
00000380: f6ed 4dbd f3e9 ab3e c395 fe3d 738e b83e
00000390: 2879 ee3e 75e5 bf3e a8ed 033f 0897 6c3f
000003a0: d0d3 a23f c6e3 583f dd75 3cbd 1c2c 5c3c
000003b0: c20a 12bd 8bda d7be 272e e8be 0969 f1be
000003c0: 5002 4c3e 96e2 d4bd 0710 d6bd 2594 bb3d
000003d0: f040 4c3f b466 85bd 838a dfbe 3baa 0d3e
000003e0: 8e83 aa3e eb3f 033e 9753 2e3e ee62 7f3d
000003f0: 3a77 e5be f44a 30be 15cb 763d 4ec9 873d

head.3.bias f4 [16]
-0.018704582 -0.42990428 -0.027602898 -0.0073782075 -0.020518657 -0.01575299 -0.08708797 -0.026410263
-0.08051903 -0.015893623 -0.00669094 -0.119665906 -0.021746904 0.072565444 -0.0013310208 -0.044245213
00000000: 5a3a 99bc 6a1c dcbe 791f e2bc e4c4 f1bb
00000010: be16 a8bc 6a0c 81bc 2d5b b2bd 565a d8bc
00000020: 29e7 a4bd 5833 82bc ac3f dbbb 6613 f5bd
00000030: 9026 b2bc 319d 943d a675 aeba 783a 35bd

head.6.weight f4 [32, 16, 3]
0.09248112 -0.32432136 -0.32907715 0.43529782 0.4746368 0.17425695 0.11098653 0.06608401
0.0020734675 0.002347492 -0.51904345 -0.110333525 -0.6569098 0.032122433 -0.14759658 0.19713661
-7.748578e-05 -0.12693092 0.28739092 -0.053704027 -0.12747428 -0.35391796 -0.3361864 0.5761842
-0.5098849 -0.086707 0.22656971 -0.20123444 -0.099625535 0.12982385 -0.002011281 -0.636338
-0.42159033 0.1423457 0.098811835 -0.025983496 0.013638138 -0.6183874 -0.1360718 0.23939922
0.1621563 0.00024559777 -0.000121137185 -0.0009627205 -0.0012671767 -0.85514885 0.032054678 -0.033936374
-0.15953149 0.3102505 0.048134062 0.016701736 0.08839553 0.14303541 0.09590076 0.055153877
0.07150667 0.10747862 0.09207629 0.25739175 -0.35117617 -0.09121296 -0.14635745 -0.32471335
0.5830225 0.2705942 -0.008973588 0.13291161 0.026432093 0.40557864 0.3397209 0.33553904
-0.44790167 -0.75422734 -0.579457 0.3490809 0.56972164 0.33847782 0.08211163 -0.41219315
-0.38170576 0.089035444 -0.13188304 -0.31801838 0.051565316 -0.05729899 -0.12474174 -0.16738592
-0.33564854 -0.16011909 0.0009759874 0.00054684037 -0.0001300858 -0.18951234 -0.5577421 -0.12454642
-0.0005833016 1.0551083e-05 -0.00027963216 -0.00072310114 0.00065850955 -0.000913773 -0.0007402019 -0.0005649878
-0.0002452363 0.00015767202 0.00022417825 -0.0010259785 -0.00015418517 -0.00074174325 8.19842e-05 -0.0010745612
-0.00096562644 -0.0008243016 -0.0006782069 -0.0008307704 -0.0005022534 -0.00078226393 -0.00047657278 8.189685e-05
0.0004276421 -0.0011451071 -0.00021989274 -0.0012621497 -0.00016427845 -0.00046216333 0.0004780224 5.7434423e-05
-0.00089600135 -0.0010351742 -0.00012822909 -0.0002078451 -0.0012329661 0.00032026175 -0.0001883079 -0.00064888387
0.0005927613 -0.00020193568 0.0005165507 0.000207455 0.00068948936 -0.00044290998 0.00023337027 -0.00087346445
-0.17707013 -0.6842867 -0.55564064 -0.10072591 -0.1542827 -0.04270937 0.1070702 0.18062666
0.27042663 0.19100419 0.4294192 0.5559445 -0.16547126 0.04322423 -0.17799942 -0.020126967
-0.28092763 -0.28276163 -0.04935054 -0.107757404 -0.06726475 -0.13180459 -0.42471308 -0.48617375
0.006261797 -0.019501723 -0.23189023 0.09852662 0.09856887 0.13026746 0.0460367 -0.11237686
-0.3317733 -0.020902894 0.09217257 -0.03910256 0.16772833 0.2571224 0.31576282 -0.27114427
-0.53799474 -0.19184947 -0.00012422203 -0.0021135667 0.000736903 -0.043451473 -0.0089794 0.15977868
-0.0037412785 0.2638956 0.064041264 0.49990875 0.4186577 -0.16171071 -0.2000336 -0.34098342
-0.44423524 -0.21305051 -0.043651007 0.0069766603 -0.10950611 -0.11810148 -0.040011838 0.08266326
0.33436012 0.23328534 0.006602579 -0.0062376023 0.6259014 -0.09356541 -0.3145922 -0.40980858
0.038995046 0.052035376 0.028729748 0.11946003 0.17457628 0.3020226 -0.11055689 0.083157115
0.2892934 0.037081446 -0.0052833846 -0.15349098 0.11357815 0.10945357 0.035073616 -0.21010107
0.11134556 0.42398176 0.000650287 0.00056552415 -0.0020021133 -0.16105296 -0.29794887 -0.3762905
-0.031466093 -0.010974126 0.026215998 0.18384871 0.7685342 0.52907574 0.17542726 0.48241216
0.30915585 -0.09162147 -0.099559955 0.02322767 -0.43008134 -0.0012945337 -0.021905776 0.05294222
00000000: be66 bd3d 730d a6be cd7c a8be 5bdf de3e
00000010: 9803 f33e 6a70 323e e84c e33d 0e57 873d
00000020: 03e3 073b 61d8 193b 08e0 04bf 8bf6 e1bd
00000030: 3e2b 28bf d092 033d 8f23 17be 2ede 493e
00000040: dd7f a2b8 2efa 01be e724 933e c1f8 5bbd
00000050: 9e88 02be bc34 b5be a020 acbe cf80 133f
00000060: d187 02bf 7193 b1bd e401 683e 6710 4ebe
00000070: 7908 ccbd 8bf0 043e b2cf 03bb 0ce7 22bf
00000080: b0da d7be 12c3 113e dc5d ca3d 57db d4bc
00000090: 7f72 5f3c a34e 1ebf 6856 0bbe 1225 753e
000000a0: 4d0c 263e 93c3 8039 080b feb8 145f 7cba
000000b0: 6517 a6ba 09eb 5abf c44b 033d de00 0bbd
000000c0: 395c 23be 27d9 9e3e 3928 453d 14d2 883c
000000d0: b708 b53d e077 123e 9e67 c43d 08e9 613d
000000e0: 1772 923d c01d dc3d 7e92 bc3d dac8 833e
000000f0: 5dcd b3be dccd babd bade 15be d440 a6be
00000100: f640 153f 538b 8a3e f505 13bc fb19 083e
00000110: 1e88 d83c 01a8 cf3e e6ef ad3e c6cb ab3e
00000120: 5e53 e5be 0b15 41bf 4b57 14bf bbba b23e
00000130: 47d9 113f f74c ad3e 242a a83d fb0a d3be
00000140: f06e c3be 3758 b63d 590c 07be 4ed3 a2be
00000150: 2736 533d 59b2 6abd 9978 ffbd 3767 2bbe
00000160: 20da abbe 42f6 23be 68d9 7f3a d659 0f3a
00000170: a467 08b9 860f 42be 30c8 0ebf 3212 ffbd
00000180: b5e8 18ba 8e04 3137 989b 92b9 7f8e 3dba
00000190: d49f 2c3a 458a 6fba 1c0a 42ba b01b 14ba
000001a0: 0f93 80b9 c354 2539 6411 6b39 207a 86ba
000001b0: c4ac 21b9 8c71 42ba efee ab38 4ad8 8cba
000001c0: 1822 7dba f215 58ba b2c9 31ba 0fc8 59ba
000001d0: a8a9 03ba d810 4dba 84dc f9b9 09c0 ab38
000001e0: 2735 e039 6b17 96ba 0293 66b9 b76e a5ba
000001f0: 2942 2cb9 834e f2b9 159f fa39 bee5 7038
00000200: a2e1 6aba afae 87ba 3c75 06b9 fff0 59b9
00000210: 7a9b a1ba cee8 a739 8474 45b9 dc19 2aba
00000220: 8a63 1b3a b2be 53b9 2169 073a 4788 5939
00000230: d9be 343a 5f36 e8b9 dbb4 7439 35f9 64ba
00000240: df51 35be 6a2d 2fbf 773e 0ebf 6349 cebd
00000250: 49fc 1dbe 05f0 2ebd 9f47 db3d 32f6 383e
00000260: 5c75 8a3e 9a96 433e d5dc db3e 6152 0e3f
00000270: 4c71 29be e40b 313d 7b45 36be 4fe1 a4bc
00000280: bfd5 8fbe 22c6 90be cb23 4abd eaaf dcbd
00000290: 1ac2 89bd c8f7 06be fe73 d9be c4eb f8be
000002a0: c32f cd3b 14c2 9fbc a274 6dbe 53c8 c93d
000002b0: 7ade c93d d564 053e fb90 3c3d d725 e6bd
000002c0: 31de a9be 8c3c abbc f9c4 bc3d 022a 20bd
000002d0: fac0 2b3e 8ca5 833e aaab a13e 6cd3 8abe
000002e0: 06ba 09bf 3074 44be 9941 02b9 c483 0abb
000002f0: b92c 413a 2cfa 31bd 551e 13bc 069d 233e
00000300: 3d30 75bb 531d 873e 1128 833d 0af4 ff3e
00000310: 4d5a d63e 7e97 25be 9cd5 4cbe 6195 aebe
00000320: cd72 e3be ea29 5abe 66cb 32bd 789c e43b
00000330: bd44 e0bd 30df f1bd 74e3 23bd 5b4b a93d
00000340: 4031 ab3e 5ae2 6e3e 725a d83b cd64 ccbb
00000350: 133b 203f 399f bfbd 3b12 a1be 6ed2 d1be
00000360: 45b9 1f3d 0c23 553d a65a eb3c 76a7 f43d
00000370: 20c4 323e b5a2 9a3e a76b e2bd 474e aa3d
00000380: 441e 943e b7e2 173d 3e20 adbb bd2c 1dbe
00000390: a99b e83d 3129 e03d 5aa9 0f3d bc24 57be
000003a0: 2409 e43d 2314 d93e 0678 2a3a af3f 143a
000003b0: e335 03bb 11eb 24be c18c 98be 26a9 c0be
000003c0: 97e2 00bd d2cc 33bc efc2 d63c d642 3c3e
000003d0: a8be 443f 8271 073f 34a3 333e bafe f63e
000003e0: ad49 9e3e 0aa4 bbbd 17e6 cbbd f447 be3c
000003f0: 9f33 dcbe 58ad a9ba be73 b3bc f1d9 583d

head.6.bias f4 [32]
-0.29507416 0.015012499 -0.0013617614 -0.083712555 -0.06739559 -0.13344233 0.0070839785 0.23108165
-0.00060314283 -0.047148343 -0.5863604 -0.089545585 -0.020138325 -0.8258084 -0.42665476 -0.34039915
-0.046736207 0.13528986 -0.39593855 0.035298295 -1.0982001 -0.06897289 0.060323603 -0.0010077776
0.079375155 -0.044093713 -0.0009412422 -0.034277316 0.19647874 0.012382118 -0.15012248 -0.034014687
00000000: f613 97be fcf6 753c 217d b2ba 7d71 abbd
00000010: b306 8abd 1ba5 08be b820 e83b aba0 6c3e
00000020: 3b1c 1eba 9f1e 41bd b71b 16bf ad63 b7bd
00000030: 21f9 a4bc 2e68 53bf 7e72 dabe cc48 aebe
00000040: 776e 3fbd 6d89 0a3e 75b8 cabe f294 103d
00000050: d291 8cbf a941 8dbd e215 773d 6817 84ba
00000060: 718f a23d 9c9b 34bd b2bd 76ba 5f66 0cbd
00000070: b931 493e 5ede 4a3c b5b9 19be fc52 0bbd

head.9.weight f4 [64, 32, 3]
-0.00028866978 -0.00019066487 -6.322632e-06 -0.0003806852 -0.00029657484 -0.00066123664 -0.0005980139 -8.485201e-05
5.1460196e-05 -0.0002521573 -0.00012696406 0.0003483369 -0.0004105205 -0.00014893708 -0.00052798685 0.00023449484
-0.00016475999 9.876321e-05 -0.0008971811 0.00012333956 -0.0006608807 0.00017105014 0.000102780745 -0.00022429573
-3.879896e-05 0.0006234163 -0.00014840446 -0.0005295408 -3.1631374e-05 0.0004501273 -3.5427915e-06 0.00033483675
-0.00025161312 -1.4017445e-05 -0.0007868353 -0.00091644697 -0.00032445116 -0.0009768059 -0.0005674153 0.00054642255
0.00016439553 -0.00016849927 -1.7474033e-05 -0.0003301037 0.0003546167 -0.0004525921 0.00013458224 -0.00051319296
-0.00033928987 -0.0010507127 -0.00041374736 9.0265436e-05 -0.00093327294 -0.0008420328 -0.0010941608 -0.000527927
-0.0005050716 -8.536808e-05 -0.00013687054 -0.00013207106 -0.00037033425 -0.0006809016 -0.0006535206 -0.0001566029
-9.9114426e-05 -0.0005660884 -0.00017977123 -0.00077140523 0.00021775285 -0.00045382293 -0.00043351031 -3.087634e-05
-9.17937e-05 0.00025215282 0.00032316233 -0.0009706606 -0.0003966473 -9.178642e-05 -7.3444644e-05 -8.2221224e-05
-0.0005208196 7.7186385e-05 -0.00027196933 9.84367e-05 -0.00034078883 0.00012762939 -0.0005785984 0.00015941536
0.0002257357 -0.0010358348 -0.00071567745 -3.68004e-05 -0.00042820754 -0.00064685376 -0.00078601023 -0.00071892166
0.16538584 0.17248179 0.00025717902 0.264932 0.29791644 0.2494182 -0.00025950602 0.00045343363
-0.00036959324 -0.1382036 -0.013829738 0.15218848 -0.10995031 -0.2691432 -0.3882435 0.11167203
0.092521705 0.12870377 0.13745335 0.27015495 -0.07661603 -0.15514608 -0.06915001 0.012452834
-0.00015519456 -1.1225761e-05 0.0002703215 -0.47111544 -0.42730966 -0.29863963 0.16594909 0.08648745
-0.07225267 -0.42858094 -0.3475944 -0.88938916 0.059025627 -0.15851712 -0.43730333 0.34036863
0.45288014 -0.4825563 -0.74260014 -1.014229 -0.9500211 0.08886901 0.4092929 -0.04240509
-0.3127451 -0.21889432 -0.13330095 0.023109293 -0.07003837 -0.28051355 0.159435 -0.1235834
-1.1246061 -0.33403093 -0.27662584 -0.6559144 0.03792326 -0.35126814 -0.3781451 -0.41680822
-0.80393577 -0.8416446 0.19751498 0.13476329 -0.0071414514 -0.12156043 -0.05869572 0.052958176
-0.0076440717 -0.42669043 -0.20479797 -0.098526515 -0.18256405 -0.86250734 -0.00073427113 -0.0008581784
0.0001431795 -0.043467674 -0.16868061 -0.18531166 -0.13407248 -0.3299014 -0.41180778 -0.0668147
0.036872316 -0.012475042 0.046640594 0.2208522 -0.59436923 0.037444655 0.19369774 -0.270845
-0.05084368 -0.08585622 0.01735126 -0.07143197 -0.052518524 0.0077085434 0.00013883467 0.000590415
0.0003827326 -0.059182 -0.068398215 0.16447522 -0.38072342 -0.2040295 -0.28577116 -0.059230834
-0.08794102 0.106498055 -0.25369164 0.060582496 0.3659087 0.3628892 0.21793115 -0.07801709
-0.0006579423 -0.00012983396 0.0006846321 -0.046282776 0.013681309 0.15983638 -0.09540549 0.16854513
0.32309157 0.123394765 -0.13197464 0.28932205 -0.02003652 -0.055194363 -0.51052594 -0.21550593
0.29359874 0.22143567 -0.008837186 0.08288047 -0.11450017 -0.017166672 -0.07186622 -0.32000816
-0.16591394 -0.019705346 0.034483045 0.2892596 0.21460482 -0.07422468 -0.06481679 0.08935606
0.18538614 -0.25497857 0.2852997 -0.38324115 -0.16543102 -0.18133333 -0.21038124 -0.04157329
00000000: 9a58 97b9 36ed 47b9 ff26 d4b6 b496 c7b9
00000010: 9a7d 9bb9 d756 2dba 09c4 1cba 93f2 b1b8
00000020: f7d6 5738 fb33 84b9 a821 05b9 fda0 b639
00000030: 213b d7b9 fe2b 1cb9 9968 0aba bbe2 7539
00000040: 6cc3 2cb9 181f cf38 ce30 6bba b654 0139
00000050: f43e 2dba ec5b 3339 fe8b d738 ed30 6bb9
00000060: 11bc 22b8 c26c 233a 059d 1bb9 e2d0 0aba
00000070: eeab 04b8 10ff eb39 b2c0 6db6 078d af39
00000080: f1ea 83b9 782c 6bb7 a043 4eba b73d 70ba
00000090: 191b aab9 2b08 80ba 99be 14ba cc3d 0f3a
000000a0: 9761 2c39 2eaf 30b9 3395 92b7 c511 adb9
000000b0: d9eb b939 e249 edb9 a51e 0d39 cc87 06ba
000000c0: b7e2 b1b9 11b8 89ba 3bec d8b9 e34c bd38
000000d0: e3a6 74ba ddbb 5cba f269 8fba 9564 0aba
000000e0: c866 04ba a407 b3b8 e884 0fb9 8e7c 0ab9
000000f0: 6c29 c2b9 887e 32ba 0651 2bba c535 24b9
00000100: a7db cfb8 8d65 14ba f980 3cb9 2138 4aba
00000110: 9654 6439 15ef edb9 c548 e3b9 3881 01b8
00000120: 5e81 c0b8 6133 8439 1d6e a939 ee73 7eba
00000130: 19f5 cfb9 767d c0b8 4b06 9ab8 2f6e acb8
00000140: 9d87 08ba 20df a138 1b97 8eb9 cd6f ce38
00000150: e7ab b2b9 41d4 0539 15ad 17ba bc28 2739
00000160: 77b3 6c39 d9c4 87ba 4d9c 3bba 215a 1ab8
00000170: 0b81 e0b9 9f91 29ba 410c 4eba 0476 3cba
00000180: e85a 293e 119f 303e fcd5 8639 2ba5 873e
00000190: 8188 983e 7c67 7f3e 4f0e 88b9 d5ba ed39
000001a0: f7c5 c1b9 3f85 0dbe 2096 62bc 4cd7 1b3e
000001b0: a12d e1bd 23cd 89be dac7 c6be 4eb4 e43d
000001c0: 057c bd3d ecca 033e 92c0 0c3e c051 8a3e
000001d0: dde8 9cbd 9dde 1ebe 859e 8dbd f906 4c3c
000001e0: b9bb 22b9 4756 3cb7 f0b9 8d39 0b36 f1be
000001f0: 55c8 dabe 4be7 98be 8fee 293e 5520 b13d
00000200: 35f9 93bd f66e dbbe e5f7 b1be 02af 63bf
00000210: dbc4 713d 5052 22be 39e6 dfbe cc44 ae3e
00000220: e8df e73e 9f11 f7be 0b1b 3ebf 42d2 81bf
00000230: 9534 73bf f500 b63d d78e d13e f6b0 2dbd
00000240: 2020 a0be d525 60be 0b80 08be b34f bd3c
00000250: 4770 8fbd 799f 8fbe ee42 233e 4b19 fdbd
00000260: 18f3 8fbf 1a06 abbe e7a1 8dbe 02ea 27bf
00000270: 6c55 1b3d 6bd9 b3be 3c9c c1be e367 d5be
00000280: bcce 4dbf 0576 57bf 5e41 4a3e 63ff 093e
00000290: d602 eabb adf4 f8bd ec6a 70bd acea 583d
000002a0: 1f7b fabb 2b77 dabe 8fb6 51be 45c8 c9bd
000002b0: 12f2 3abe 48cd 5cbf 1a7c 40ba 61f7 60ba
000002c0: 7422 1639 290b 32bd 9cba 2cbe 57c2 3dbe
000002d0: 4c4a 09be d6e8 a8be 78d8 d2be 25d6 88bd
000002e0: 6d07 173d 1e64 4cbc 350a 3f3d 1427 623e
000002f0: 9528 18bf 915f 193d b358 463e 32ac 8abe
00000300: 7641 50bd 63d5 afbd 3b24 8e3c ed4a 92bd
00000310: aa1d 57bd f397 fc3b 2694 1139 14c6 1a3a
00000320: 80a9 c839 d368 72bd 5d14 8cbd 316c 283e
00000330: 2eee c2be 1ced 50be 9950 92be 089c 72bd
00000340: 6c1a b4bd a71b da3d dfe3 81be 5a25 783d
00000350: 6358 bb3e 9dcc b93e 5829 5f3e 6dc7 9fbd
00000360: c379 2cba 0a24 08b9 e278 333a 0293 3dbd
00000370: 9227 603c 26ac 233e f463 c3bd 1897 2c3e
00000380: 426c a53e 65b6 fc3d 5c24 07be 0522 943e
00000390: a123 a4bc 7c13 62bd d4b1 02bf 96ad 5cbe
000003a0: 9352 963e 08c0 623e d8c9 10bc 3cbd a93d
000003b0: 117f eabd 1fa1 8cbc 992e 93bd 1cd8 a3be
000003c0: 58e5 29be 1b6d a1bc 183e 0d3d d619 943e
000003d0: 5ec1 5b3e 1c03 98bd aabe 84bd 4f00 b73d
000003e0: ddd5 3d3e 8d8c 82be cd12 923e 2f38 c4be
000003f0: c066 29be 72af 39be 2e6e 57be c148 2abd

head.9.bias f4 [64]
-0.00070851285 0.22164112 -0.126471 -0.037008833 -0.5930756 -0.056076843 0.3150809 -0.054332703
-0.3506443 -0.0009087253 -0.03591655 -0.0024195514 -0.04183118 -0.106793426 -0.08146079 0.06897002
-0.4721261 0.00054611993 -0.12474868 0.07223022 0.09826084 0.0018731513 -0.0009280802 -0.0813867
0.017773945 0.08818994 -0.055402294 -0.0012498434 -0.0010502012 -0.04301247 -0.09902163 -0.142738
-0.0009869663 -0.068329014 0.1388723 0.011228536 -0.0009026462 0.03616459 -0.13655518 0.22945209
-0.03194725 -0.037546575 -0.075204395 -0.15320358 -0.084543675 -0.07051838 -0.855907 -0.48029345
-0.039627656 -0.24245735 -0.08938541 -0.010933356 -0.17822483 0.082685225 0.075020455 -0.13067086
0.12344865 -0.07247859 0.011942113 -0.05902767 -0.08308816 -0.07309102 -0.11182137 -0.17522684
00000000: 7ebb 39ba e4f5 623e 9d81 01be 9396 17bd
00000010: cdd3 17bf d5b0 65bd 4952 a13e f88b 5ebd
00000020: a687 b3be 8637 6eba 3b1d 13bd 5691 1ebb
00000030: 2c57 2bbd 83b6 dabd ead4 a6bd 2740 8d3d
00000040: 83ba f1be 7d29 0f3a 3c7c ffbd 70ed 933d
00000050: fb3c c93d 8784 f53a 684a 73ba 12ae a6bd
00000060: aa9a 913c ed9c b43d 84ed 62bd c9d1 a3ba
00000070: e8a6 89ba d82d 30bd dacb cabd e929 12be
00000080: 185d 81ba 15f0 8bbd 8a34 0e3e e5f7 373c
00000090: 909f 6cba 5221 143d 1fd5 0bbe 7df5 6a3e
000000a0: 1fdb 02bd 70ca 19bd c304 9abd 66e1 1cbe
000000b0: 3c25 adbd f16b 90bd b91c 5bbf 06e9 f5be
000000c0: 9c50 22bd bd46 78be b30f b7bd d221 33bc
000000d0: 9280 36be df56 a93d 53a4 993d 95ce 05be
000000e0: a5d2 fc3d a86f 94bd daa8 433c 00c7 71bd
000000f0: 202a aabd bfb0 95bd 9a02 e5bd aa6e 33be

head.12.weight f4 [128, 64, 3]
0.00031456718 -4.42233e-05 -0.00020684682 -0.0005326229 -0.0007423859 -0.00025409542 -0.00051320385 -0.00055596745
-0.00074385677 -0.0010505586 -0.00061312015 -0.00092026184 -0.00018157095 -0.0004741691 -0.00035938597 -0.0005605078
-0.0007563174 -0.0004607803 -0.0007124534 -0.0014058531 -0.0013402418 -0.0002641275 -0.00017261477 -0.00084430625
-7.2403134e-05 0.00042902693 -0.0010312394 0.00042174934 0.00019132548 -0.00024482212 -0.00050659943 -0.00028995675
-0.00043519793 3.42879e-05 0.00042398984 -0.00029734694 -0.00066711474 -0.0007200928 -0.0006553787 -2.525748e-05
5.9579997e-05 -0.00032402732 -0.00032360866 -0.0002629612 -5.027475e-05 -0.00074724597 -0.00084126677 -0.00030754055
-0.00014481749 -0.0004992969 -7.946885e-05 -6.367244e-05 -0.0004295455 0.00027030124 -0.0006375111 -0.00090438256
-0.00021947527 -0.0011423309 -0.000961869 -0.0006146182 -0.00026261903 -0.0008866226 -0.00067312986 -0.0010178818
-0.0010990809 -0.0010394203 -0.0002453604 -0.00019338127 -0.00041674427 8.6876425e-05 5.13358e-05 7.09307e-05
-0.00061777554 -0.00080786116 -3.809244e-05 -0.00091364497 -0.0009398875 -0.0006878903 -0.00096217263 -0.00093968824
-0.000958072 0.00011582636 5.842245e-05 -0.00040966488 -2.2638704e-05 0.000237321 -0.00027447255 -0.0005750062
-0.0002086176 -0.0005297689 8.368333e-05 -0.00038591397 -0.00035566225 -0.000309363 -4.3053667e-05 -0.00029888688
7.024115e-05 -0.000348214 -0.00043641464 -0.0005474258 -0.00027460858 -0.000836306 -0.001400506 -0.0011892167
-0.00046135843 -0.0011068959 -0.00089365605 -7.769314e-05 0.0001871635 0.00023942103 -0.00012037555 -0.00028615902
-0.00028098671 -0.0009677005 -0.00048114307 -0.00039238267 -0.00037392572 -0.00090727134 -0.00078551716 -9.496148e-05
7.4784635e-05 -0.00049736106 -0.00024857197 -0.00080140255 -0.00035835427 -0.000774652 -0.0005343901 0.0005697595
0.0002543508 -0.0004518877 0.00034397704 0.000106627 4.9491762e-05 -0.00072815793 -0.00019296262 -0.00012336328
-0.0001746343 6.22513e-05 -4.8270475e-05 5.3109106e-05 -4.151158e-05 -0.0002560901 6.7566696e-05 0.00015211997
-0.00071821053 -0.0005978372 -0.00066454866 -0.00034752124 -0.00041101107 -0.00046616048 0.00040958516 0.0002945836
-2.6091213e-06 0.000613378 -0.00029258474 -0.00038265143 -0.00036572263 -0.0006859485 0.00021380078 -0.00043276037
-0.00031590657 -0.0008100811 -0.00028665864 0.00020605963 -0.00031230142 -0.0006355605 -0.00024997786 0.00034175205
-0.0012310741 -0.0006168134 -0.0011577978 -0.00018061038 -7.4848285e-05 -0.0002698176 -0.00028358636 -9.755444e-05
-0.0005113149 -0.00040439807 0.00010286549 -0.00074248586 -0.00040732374 -0.00070077705 -0.00065978663 -0.00021109689
0.00017948214 -0.0005687546 -0.0007224289 -0.0005944582 -0.00043745234 -0.00050075667 -0.00045044167 4.6298355e-05
-0.00027465523 -9.518046e-05 0.0001927806 -0.0111927735 -0.0010525777 -0.008814066 -0.016853835 -0.0034396986
-0.012530993 -0.0015920202 -0.0015173737 0.007593545 -0.013254418 -0.009982588 -0.006600526 -0.004604508
-0.010357589 -0.015642973 -0.014055691 -0.01633095 -0.017395016 -0.00523332 -0.025881447 -0.01744489
-0.0072318916 -0.00363918 0.0006475717 9.731923e-05 0.00042113455 6.089027e-05 -0.024374284 -0.0010338138
-0.0134530645 -0.00034520408 -0.00020804325 3.6570753e-05 -0.01732964 -0.028073693 0.007939698 -0.010074835
-0.008199766 -0.01392973 -0.017619232 -0.0100678215 0.011706788 -0.0044608978 -0.0057754596 -0.012588561
-0.015456729 -0.005438951 -0.010964268 -0.011008567 -0.024041275 -0.0012252755 -0.013880526 -0.01242484
-0.019774962 -2.5960539e-05 0.0028264208 -0.03000788 -0.021448612 -0.020679776 -0.021911329 0.0013261781
00000000: 7eec a439 687c 39b8 05e5 58b9 b89f 0bba
00000010: ad9c 42ba 1c38 85b9 8788 06ba 58be 11ba
00000020: 62ff 42ba e6b2 89ba ccb9 20ba ba3d 71ba
00000030: 1564 3eb9 e699 f8b9 f86b bcb9 0bef 12ba
00000040: 9a43 46ba e394 f1b9 f0c3 3aba 9a44 b8ba
00000050: 0dab afba 987a 8ab9 edff 34b9 6f54 5dba
00000060: 23d7 97b8 05ef e039 a72a 87ba 3d1e dd39
00000070: 8b9e 4839 785b 80b9 50cd 04ba 5605 98b9
00000080: 472b e4b9 5ad0 0f38 f44a de39 3be5 9bb9
00000090: 50e1 2eba 9cc4 3cba b8cd 2bba 06e0 d3b7
000000a0: 89e5 7938 36e2 a9b9 05aa a9b9 0ede 89b9
000000b0: 1ade 52b8 d4e2 43ba 7588 5cba 653d a1b9
000000c0: 26da 17b9 3fe3 02ba 84a8 a6b8 e287 85b8
000000d0: 9f34 e1b9 38b7 8d39 a51e 27ba 1614 6dba
000000e0: f222 66b9 44ba 95ba f025 7cba 541e 21ba
000000f0: 21b0 89b9 3c6c 68ba fb74 30ba 726a 85ba
00000100: 090f 90ba 283d 88ba b7a3 80b9 64c6 4ab9
00000110: 787e dab9 6d31 b638 6551 5738 a1c0 9438
00000120: 37f2 21ba a5c6 53ba 72c5 1fb8 ad81 6fba
00000130: c862 76ba 8953 34ba 503a 7cba 6955 76ba
00000140: 2027 7bba cee7 f238 a10a 7538 4ac8 d6b9
00000150: 3fe8 bdb7 5fd9 7839 15e7 8fb9 03bc 16ba
00000160: 5cc0 5ab9 30e0 0aba 257f af38 7f54 cab9
00000170: 2e78 bab9 0032 a2b9 8694 34b8 ebb3 9cb9
00000180: 6e4e 9338 7e90 b6b9 95ce e4b9 2081 0fba
00000190: 57f9 8fb9 8c3b 5bba 2f91 b7ba 7edf 9bba
000001a0: 7be2 f1b9 4315 91ba 3e44 6aba 30ef a2b8
000001b0: 5241 4439 180d 7b39 2272 fcb8 9d07 96b9
000001c0: 6651 93b9 48ad 7dba ee41 fcb9 b6b8 cdb9
000001d0: 760b c4b9 f3d5 6dba 2aeb 4dba 0e26 c7b8
000001e0: b2d5 9c38 5661 02ba c452 82b9 3715 52ba
000001f0: 7fe1 bbb9 0412 4bba 5016 0cba ea5b 153a
00000200: 635a 8539 57eb ecb9 d157 b439 ef9c df38
00000210: 6095 4f38 dae1 3eba 0256 4ab9 145b 01b9
00000220: 0a1e 37b9 ea8c 8238 0776 4ab8 78c1 5e38
00000230: b81c 2eb8 d543 86b9 98b2 8d38 6582 1f39
00000240: 4b46 3cba 2db8 1cba 1b35 2eba 8333 b6b9
00000250: f97c d7b9 0067 f4b9 97bd d639 5772 9a39
00000260: 5d18 2fb6 1acb 203a 0f66 99b9 9b9e c8b9
00000270: 76be bfb9 39d1 33ba b62f 6039 1de4 e2b9
00000280: 43a0 a5b9 9f5b 54ba ac4a 96b9 b611 5839
00000290: 63bc a3b9 be9b 26ba 760f 83b9 2f2d b339
000002a0: fe5b a1ba a6b1 21ba 3fc1 97ba 3b62 3db9
000002b0: def7 9cb8 4e76 8db9 51ae 94b9 2496 ccb8
000002c0: c309 06ba 6405 d4b9 7db9 d738 62a3 42ba
000002d0: 118e d5b9 5ab4 37ba 88f5 2cba e459 5db9
000002e0: 5f33 3c39 7a18 15ba 6261 3dba 6ad5 1bba
000002f0: dc59 e5b9 3645 03ba 4229 ecb9 7b30 4238
00000300: 9aff 8fb9 9f9b c7b8 2625 4a39 e561 37bc
00000310: a6f6 89ba df68 10bc 0e11 8abc 916c 61bb
00000320: cb4e 4dbc 55ab d0ba 9de2 c6ba 46d3 f83b
00000330: 0f29 59bc 028e 23bc 3a49 d8bb 6ae1 96bb
00000340: e1b2 29bc b125 80bc d749 66bc 7cc8 85bc
00000350: fe7f 8ebc 457c abbb 5405 d4bc 96e8 8ebc
00000360: 81f9 ecbb 4f7f 6ebb cdc1 293a dd17 cc38
00000370: b9cb dc39 6e64 7f38 94ac c7bc 0981 87ba
00000380: 3e6a 5cbc 82fc b4b9 2f26 5ab9 8c63 1938
00000390: e4f6 8dbc cdfa e5bc 8215 023c ec10 25bc
000003a0: 5058 06bc 8639 64bc 3556 90bc 81f3 24bc
000003b0: d4cd 3f3c b92c 92bb 1140 bdbb 4040 4ebc
000003c0: 383e 7dbc 3a39 b2bb 79a3 33bc 475d 34bc
000003d0: 35f2 c4bc 6c99 a0ba 256b 63bc 8e91 4bbc
000003e0: 1aff a1bc d5c5 d9b7 793b 393b 16d3 f5bc
000003f0: 00b5 afbc a268 a9bc 637f b3bc 27d3 ad3a

head.12.bias f4 [128]
-0.0015396186 -0.019500207 0.069690876 -0.14637297 -0.16187723 -0.10692352 -0.07694016 0.05783036
0.013780753 -0.0009831795 -0.09217715 -0.14829004 -0.15076149 -0.01639796 0.139627 -0.37934175
0.34162366 -0.0015342053 0.082745455 -0.0025179011 -0.58776724 -0.0023278068 -0.19639155 0.26267624
-0.25622347 -0.00084286917 -0.37301245 -0.00042174564 -0.0010343657 -0.0011316759 -0.03282169 -0.0010401553
-0.0010342734 0.12957568 -0.4202684 -0.0009452872 -0.022963358 -0.4545313 0.028803516 -0.06459004
-0.28096396 0.18142112 -0.38692123 -0.09306908 0.017063148 -0.1838079 -0.0015800043 -0.1790225
-0.002463439 -0.15144737 -0.037453983 -0.004688372 0.06666448 -0.1117824 -0.008958442 -0.0012522965
-0.0020210198 -0.0005784572 -0.109730296 0.11253031 -0.011244666 -0.0017462804 -0.0010244087 -0.0022161596
-0.10292521 -0.1383405 -0.036123186 -0.10170687 -0.0011388428 0.21412162 -0.0014645195 0.06828356
-0.23503116 -0.27285397 -0.0014916915 -0.0012153701 -0.0020538748 -0.0010074562 -0.22463353 -0.19832449
-0.0011730125 -0.12223034 0.23734467 -0.0013817744 -0.0018090929 -0.20319211 -0.40647677 0.06519099
-0.00044079113 0.015292542 -0.22710487 0.017581621 -0.0015372308 -0.001822374 -0.15744127 0.048972815
-0.14049388 0.3100672 0.33799365 -0.15437256 -0.14635478 -0.00067928026 0.26524276 0.18429303
-0.0018948549 -0.08389519 -0.06492615 -0.30538803 0.29607695 0.32978675 0.22511177 -0.016616905
-0.09568489 -0.29078868 -0.1278979 -0.0017777918 -0.0025136739 -0.15282027 0.22168913 0.06893806
0.08913779 0.048767697 0.3294574 -0.035059206 0.11141892 0.05110692 -0.36073774 0.12793988
00000000: 07cd c9ba e6be 9fbc 17ba 8e3d cce2 15be
00000010: 25c3 25be b8fa dabd cd92 9dbd 87df 6c3d
00000020: abc8 613c 08de 80ba 60c7 bcbd 58d9 17be
00000030: 3861 1abe 0455 86bc 61fa 0e3e 1539 c2be
00000040: 4ce9 ae3e 6317 c9ba 7376 a93d 5f03 25bb
00000050: ea77 16bf 1e8e 18bb de1a 49be 807d 863e
00000060: b92f 83be fef3 5cba 7dfb bebe be1d ddb9
00000070: 8e93 87ba be54 94ba 0970 06bd d255 88ba
00000080: 7590 87ba 7daf 043e 6b2d d7be 26cd 77ba
00000090: a71d bcbc 54b8 e8be 5af5 eb3c c847 84bd
000000a0: 82da 8fbe 75c6 393e 8a1a c6be 009b bebd
000000b0: 04c8 8b3c 2338 3cbe 2618 cfba ad51 37be
000000c0: a671 21bb 0515 1bbe 5969 19bd eaa0 99bb
000000d0: 6387 883d 2cee e4bd 6ec6 12bc 1924 a4ba
000000e0: 1673 04bb 9ba3 17ba 47ba e0bd 4b76 e63d
000000f0: 8c3b 38bc 72e3 e4ba 7445 86ba fd3c 11bb
00000100: 74ca d2bd 22a9 0dbe e8f5 13bd b14b d0bd
00000110: 3945 95ba b342 5b3e 1ff5 bfba 40d8 8b3d
00000120: 02ac 70be 84b3 8bbe dc84 c3ba 0e4d 9fba
00000130: 4d9a 06bb 9f0c 84ba 5506 66be 9315 4bbe
00000140: c5bf 99ba e753 fabd 7b0a 733e a81c b5ba
00000150: 161f edba 9811 50be b91d d0be db82 853d
00000160: fc19 e7b9 928d 7a3c 2e8e 68be 5507 903c
00000170: e87c c9ba b9dc eeba 4938 21be b897 483d
00000180: a1dd 0fbe 21c1 9e3e 810d ad3e d713 1ebe
00000190: 07de 15be ba11 32ba e6cd 873e 50b7 3c3e
000001a0: c85c f8ba 3ed1 abbd 00f8 84bd d25b 9cbe
000001b0: 6697 973e cfd9 a83e b383 663e 2d20 88bc
000001c0: 71f6 c3bd 41e2 94be abf7 02be cb04 e9ba
000001d0: 73bc 24bb eb7c 1cbe 7a02 633e 662f 8d3d
000001e0: e08d b63d a3c0 473d a4ae a83e 3e9a 0fbd
000001f0: 9a2f e43d 7d55 513d 9eb2 b8be ac02 033e

head.16.weight_ih_l0 f4 [96, 128]
0.0006304301 0.0016530177 0.07255967 -0.088913135 0.041653343 -0.11252861 -0.12383544 0.51354504
-0.26373354 0.0010537737 -0.090971254 -0.1483528 0.315179 -0.004997538 0.13788389 -0.39396563
0.21991788 0.0012107135 -0.5123436 -0.0012392795 0.30605692 7.747184e-05 0.023644079 -0.17650023
-0.2367988 -0.51660687 -0.030718353 0.0009116027 0.008266945 0.0005125189 -0.0020624206 -0.0011012282
-0.0011545888 0.07812352 -0.019208081 -0.0010098036 -0.61843497 0.52917016 -0.39996096 -0.03812435
-0.31356218 0.13749205 -0.28272432 -0.14595534 -0.15384306 0.18349838 0.0007368339 0.21523598
-0.0012472547 0.069507964 -0.038897287 -0.0004090765 -0.05033221 0.009097849 0.28328934 -0.00048786227
-0.00019985235 -0.0010514125 0.53904074 0.06953142 0.008753532 0.0005440158 -0.001092277 -0.000105066036
0.054110244 -0.38636178 0.03704575 0.0020173658 -9.715451e-05 0.2186878 -0.0010767205 0.14206916
-0.48249227 0.17678612 -0.0014259991 -0.00020165792 0.0008220822 0.0005055056 0.09261811 -0.12107717
-0.0007420295 -0.38023236 0.15045051 0.00054403744 0.00039128642 -0.25980115 0.51563364 -0.38775125
0.0003355667 0.31737635 -0.22019908 0.63952655 -0.0012724982 -0.0005783819 -0.27325463 0.12504514
0.008740414 0.1859167 -0.13782948 0.24115641 -0.30376306 0.0007457776 -0.80102307 -0.106617086
0.0011208787 -0.017807687 -0.48485082 -0.114638045 0.115841255 -0.008969099 0.1177298 0.68347466
-0.43455234 -0.21982509 -0.10168975 -0.0002539869 9.67571e-05 0.16768397 0.25931993 -0.1637364
-0.1577055 -0.023258664 -0.0388656 -0.06916675 0.60381854 0.2914859 -0.09089513 0.2749523
0.00037870472 -0.005044463 -0.1287092 0.19225162 0.005422658 -0.25754762 -0.053211756 0.17167571
-0.012808281 0.0001127335 -0.19490634 0.08005031 -0.37908423 -0.0025970526 -0.33257493 -0.16184282
-0.05779268 0.0004715238 0.080757536 -0.00056280696 0.5039091 0.00066131534 0.33515817 -0.121403575
0.03303869 -0.096119076 0.59960407 -0.000110799156 -0.023502896 -0.00027450256 -0.004790312 -0.00024061039
0.0011574529 0.10795059 0.37329152 0.00012464516 -0.069508314 -0.25703493 -0.14781459 0.36627617
-0.11120199 -0.017473614 0.13312638 0.2699804 0.016165433 -0.531623 0.00058168924 0.38701668
0.00057578785 0.10135785 -0.91443413 -0.00066408335 -0.032662526 -0.5024105 -0.2205932 -0.0011716814
0.00042297313 0.0004080894 -0.55161506 0.078293405 -9.361361e-05 0.00039926474 -0.0010845045 0.001033183
-0.45662248 0.094250195 -0.25306508 0.06721806 -0.00028602497 0.16873012 -0.0011360785 -0.33136573
-0.7280883 -0.48237714 0.0013690696 -0.0008051805 0.00036108613 -0.0009341032 0.1974531 0.03876123
-0.00040059147 -0.39868224 -0.15352394 -0.0008614352 0.00029962958 -0.22265494 0.2352701 0.025445033
0.00033450322 0.2657315 0.14698654 0.094442025 0.0012092562 -0.00046441352 -0.26839715 -0.14260535
-0.12079126 0.3030588 -0.054361925 0.27158168 -0.17754644 0.0002528019 -0.05453996 0.45449963
0.0007093239 -0.22515458 -0.42815533 0.5444347 0.59173906 0.3812656 -0.20136638 0.5488997
0.117635846 0.31660962 -0.032644153 -0.00040020372 -0.00091206306 -0.41812268 0.26298228 -0.21572565
0.11221765 0.01507121 0.3255219 -1.355751 0.22647923 -0.04881758 -0.046305966 -0.0056365724
00000000: 7343 253a 12aa d83a 2a9a 943d 1718 b6bd
00000010: b29c 2a3d 6675 e6bd 6f9d fdbd b077 033f
00000020: 1508 87be c71e 8a3a 234f babd cce9 17be
00000030: 245f a13e 63c2 a3bb 6f31 0d3e ddb5 c9be
00000040: 2732 613e ceb0 9e3a f328 03bf 526f a2ba
00000050: 7eb3 9c3e 6178 a238 3ab1 c13c 7abc 34be
00000060: 627b 72be 5940 04bf 0ea5 fbbc 9ff8 6e3a
00000070: 1572 073c 905a 063a ad29 07bb 1657 90ba
00000080: 9255 97ba 39ff 9f3d 445a 9dbc 635b 84ba
00000090: c151 1ebf b277 073f afc7 ccbe 4728 1cbd
000000a0: 398b a0be b7ca 0c3e 3ec1 90be 5175 15be
000000b0: 0989 1dbe 00e7 3b3e 1628 413a d266 5c3e
000000c0: ec7a a3ba 315a 8e3d c352 1fbd 5279 d6b9
000000d0: 2629 4ebd 250f 153c 4d0b 913e c4c7 ffb9
000000e0: 758f 51b9 8dcf 89ba 93fe 093f 7d66 8e3d
000000f0: f96a 0f3c 489c 0e3a bc2a 8fba e656 dcb8
00000100: b4a2 5d3d 36d1 c5be 49bd 173d c835 043b
00000110: 6ebf cbb8 b2ef 5f3e bf20 8dba 947a 113e
00000120: 3a09 f7be 6c07 353e 97e8 baba 2374 53b9
00000130: 0181 573a e883 043a 90ae bd3d 4ff7 f7bd
00000140: c284 42ba d1ad c2be b30f 1a3e bc9d 0e3a
00000150: 9325 cd39 a804 85be 9100 043f 5587 c6be
00000160: 00ef af39 277f a23e de7b 61be 03b8 233f
00000170: f4c9 a6ba 8d9e 17ba 08e8 8bbe d50b 003e
00000180: f433 0f3c f360 3e3e 2c23 0dbe b5f1 763e
00000190: d586 9bbe 4a80 433a d90f 4dbf 0f5a dabd
000001a0: 73ea 923a 6de1 91bc 5e3e f8be 5ac7 eabd
000001b0: 2e3e ed3d 21f3 12bc 521c f13d 32f8 2e3f
000001c0: a57d debe d419 61be b742 d0bd 8b29 85b9
000001d0: 13ea ca38 59b5 2b3e 95c5 843e 84aa 27be
000001e0: 8d7d 21be f488 bebc 8931 1fbd 4ca7 8dbd
000001f0: da93 1a3f a43d 953e 3a27 babd 8cc6 8c3e
00000200: e38c c639 064c a5bb 58cc 03be 9cdd 443e
00000210: 8db0 b13b 48dd 83be 92f4 59bd c2cb 2f3e
00000220: d3d9 51bc 566b ec38 8795 47be 6bf1 a33d
00000230: 5417 c2be 5033 2abb 4347 aabe 20ba 25be
00000240: 04b8 6cbd da36 f739 3564 a53d 5689 13ba
00000250: 3000 013f 1f5c 2d3a da99 ab3e 70a2 f8bd
00000260: 9453 073d 14da c4bd a77f 193f d85c e8b8
00000270: 2589 c0bc 1ceb 8fb9 0df8 9cbb 5c4c 7cb9
00000280: adb5 973a 3315 dd3d 1120 bf3e 2eb3 0239
00000290: 605a 8ebd 159a 83be b55c 17be 8d88 bb3e
000002a0: debd e3bd d324 8fbc 4852 083e df3a 8a3e
000002b0: 5f6d 843c 7218 08bf 817c 183a 0d27 c63e
000002c0: 78f0 163a b494 cf3d 5b18 6abf e115 2eba
000002d0: 24c9 05bd f99d 00bf 2fe3 61be 1b93 99ba
000002e0: 7ec2 dd39 d5f4 d539 a536 0dbf 4b58 a03d
000002f0: 6d52 c4b8 6854 d139 ef25 8eba de6b 873a
00000300: 6cca e9be 3f06 c13d bf91 81be 9fa9 893d
00000310: 9ff5 95b9 97c7 2c3e 78e8 94ba c5a8 a9be
00000320: ff63 3abf 23fa f6be 5a72 b33a c012 53ba
00000330: 2950 bd39 9bde 74ba 2531 4a3e 18c4 1e3d
00000340: 7a06 d2b9 1420 ccbe 6135 1dbe f0d1 61ba
00000350: 9a17 9d39 a8ff 63be a5ea 703e 1a72 d03c
00000360: 4360 af39 f60d 883e a483 163e d26a c13d
00000370: e87f 9e3a 877c f3b9 5a6b 89be 2307 12be
00000380: 6861 f7bd 862a 9b3e 9caa 5ebd c10c 8b3e
00000390: bcce 35be 7f8a 8439 4b65 5fbd 2db4 e83e
000003a0: ecf1 393a ec8e 66be 2d37 dbbe 1360 0b3f
000003b0: 367c 173f 3f35 c33e fd32 4ebe b184 0c3f
000003c0: 10eb f03d a81a a23e e0b5 05bd 6fd2 d1b9
000003d0: 8417 6fba 2d14 d6be 9da5 863e 2fe7 5cbe
000003e0: 5ed2 e53d 3ded 763c ceaa a63e 4089 adbf
000003f0: 2cea 673e f1f4 47bd 53ab 3dbd ffb2 b8bb

head.16.weight_hh_l0 f4 [96, 32]
-0.74121195 0.721938 -0.08140019 -0.3776404 0.171727 0.08901165 0.22014424 -0.044761278
0.2559227 -0.47442266 -0.13731304 -0.11727136 0.8723674 0.07894903 -0.0985087 -0.06480986
-0.081943706 0.49277982 -0.040705632 -0.110340044 -0.21649924 0.39973205 -0.268691 -0.35743392
0.051757753 -0.022750307 0.35312387 -0.28312582 -0.06394885 0.2951732 0.53246665 -0.0036707171
0.28943574 0.03636301 0.5020352 -0.5397823 0.27306134 0.115546204 0.621437 -0.09434217
-0.32625547 -0.31184682 0.29535925 0.07945117 0.08443322 -0.032531455 0.10684003 0.22381519
0.0104541555 -0.15883161 -0.10564274 -0.16799219 0.16174702 -0.55127734 -0.3119591 -0.5712187
-0.17389964 -0.20214532 0.29017362 -0.37330893 -0.024524191 0.19579335 0.37132248 0.20012073
0.36307546 -0.12680168 0.007089922 -0.16838455 -0.28269717 0.24110284 -0.02219524 -0.56776226
-0.30978245 0.3723267 -0.058353737 0.13189366 -0.27836895 -0.13654688 0.42368275 -0.12893094
0.25512618 -0.30012375 0.07257279 0.22607358 0.054530106 -0.48338804 0.6039144 0.34973118
0.41344044 -0.082671635 0.08544995 0.55956405 0.17220531 0.044481102 -0.058580823 0.13846835
-0.44984677 -0.19520195 0.011932979 0.31839943 -0.62699765 -0.030318396 0.013425011 0.80804175
0.2574712 0.032432985 0.018823331 0.33149505 -0.22475842 0.23780549 -0.35773805 -0.20375495
0.105536975 0.031223552 0.19789857 -0.10945211 -0.17357676 0.30627972 -0.3230747 -0.016955921
0.13524403 0.010656013 0.75351745 0.19130374 -0.08735353 -0.050863646 0.0018693126 -0.52262914
-0.38743392 0.5097581 -0.17475106 0.14808285 -0.019990826 0.24759574 0.14097755 0.26209202
0.09855477 0.23110941 -0.37467453 -0.061354615 0.23168442 -0.0336314 -0.12710567 -0.15934192
0.16458388 0.28604034 -0.075100474 -0.1852905 0.1210471 -0.25070605 -0.1728714 0.6243241
0.38343754 -0.22379254 -0.19127573 0.2122659 0.12202639 0.20499174 -0.36368197 0.027079687
-0.3509445 0.6440389 -0.07115279 0.3681331 0.040169418 -0.015420594 0.32068253 -0.23323147
-0.9736749 -0.38623154 0.34156382 0.4555963 0.46847034 0.093427666 0.012537789 -0.23550783
0.1353867 0.59863555 0.19195387 -0.2012571 0.33066478 0.29470897 -0.28426945 -0.2101749
0.007127245 -0.11114768 0.12707347 0.027583895 0.17493114 -0.0723928 0.025588643 0.105469875
0.17168948 -0.20744282 0.15602995 0.1357167 -0.07603183 0.2966485 0.29242194 -0.5610169
-0.61215043 -0.40243188 0.18005691 -0.093554355 0.20658816 -0.28127 -0.48171726 0.12457847
-0.19041288 -0.05027619 -0.024205966 -0.31348398 0.765952 0.037036095 -0.067589685 -0.4153701
-0.46459633 -0.0005752718 0.33847293 -0.13901183 0.07058565 -0.115844645 -0.61847395 0.35984513
-0.5264509 -0.039134353 0.3067046 -0.20890276 0.007100176 -0.20981126 0.32275817 -0.45256886
0.30488685 -0.4818944 0.25455102 -0.12212672 0.39098397 -0.0056099463 0.38951197 0.21945672
0.14524834 -0.43710563 0.08787057 -0.13069451 -0.2306324 0.2670053 0.58320665 -0.45871767
-0.024277434 -0.2458635 0.0011216517 0.06789399 -0.12454055 -0.43604958 0.3518285 0.11124382
00000000: 11c0 3dbf eed0 383f 25b5 a6bd 155a c1be
00000010: 34d9 2f3e bd4b b63d 7e6d 613e 9a57 37bd
00000020: 4d08 833e 87e7 f2be ca9b 0cbe f72b f0bd
00000030: 7853 5f3f 07b0 a13d eebe c9bd 08bb 84bd
00000040: 1ad2 a7bd a34d fc3e f3ba 26bd f6f9 e1bd
00000050: fab1 5dbe aea9 cc3e de91 89be 9401 b7be
00000060: f0ff 533d da5e babc a7cc b43e def5 90be
00000070: 9df7 82bd f120 973e bc4f 083f 6a90 70bb
00000080: ec30 943e 61f1 143d 6185 003f 2c2f 0abf
00000090: b2ce 8b3e 7da3 ec3d 7f16 1f3f 7836 c1bd
000000a0: f50a a7be 63aa 9fbe 5439 973e 4cb7 a23d
000000b0: 53eb ac3d b43f 05bd f2ce da3d cf2f 653e
000000c0: e847 2b3c c1a4 22be 395b d8bd 2506 2cbe
000000d0: 03a1 253e 8320 0dbf 1ab9 9fbe 643b 12bf
000000e0: bf12 32be 2fff 4ebe a391 943e 5922 bfbe
000000f0: f5e6 c8bc 0d7e 483e fb1d be3e 73ec 4c3e
00000100: 07e5 b93e 4dd8 01be 9452 e83b 006d 2cbe
00000110: afbd 90be aae3 763e cbd2 b5bc de58 11bf
00000120: ce9b 9ebe 9ba1 be3e 5404 6fbd 220f 073e
00000130: 6086 8ebe f2d2 0bbe f2ec d83e 7906 04be
00000140: e69f 823e d2a9 99be 0ba1 943d d57f 673e
00000150: f65a 5f3d a37e f7be 229a 1a3f f70f b33e
00000160: 77ae d33e bf4f a9bd 6200 af3d 973f 0f3f
00000170: 9756 303e d131 363d 72f2 6fbd a6ca 0d3e
00000180: 5152 e6be 05e3 47be 8b82 433c 4005 a33e
00000190: eb82 20bf 495e f8bc 94f4 5b3c d3db 4e3f
000001a0: 44d3 833e 73d8 043d 6333 9a3c b8b9 a93e
000001b0: 1227 66be 4883 733e 7129 b7be 23a5 50be
000001c0: c523 d83d 89c8 ff3c eca5 4a3e 6e28 e0bd
000001d0: 1bbe 31be b2d0 9c3e 0c6a a5be 25e7 8abc
000001e0: 697d 0a3e 8f96 2e3c 85e6 403f 21e5 433e
000001f0: 68e6 b2bd 6656 50bd b903 f53a 06cb 05bf
00000200: bd5d c6be 827f 023f f1f1 32be 08a3 173e
00000210: cdc3 a3bc bd89 7d3e 6b5c 103e ed30 863e
00000220: 15d7 c93d f2a7 6c3e 57d5 bfbe fa4e 7bbd
00000230: ae3e 6d3e 14c1 09bd fd27 02be 872a 23be
00000240: ad88 283e e173 923e 47ce 99bd cbbc 3dbe
00000250: 8be7 f73d 8b5c 80be 3305 31be b4d3 1f3f
00000260: ed51 c43e df29 65be c9dd 43be 3b5c 593e
00000270: f9e8 f93d 5be9 513e 8634 babe 38d6 dd3c
00000280: ffae b3be bcdf 243f 8eb8 91bd f17b bc3e
00000290: b088 243d a9a6 7cbc 8030 a43e 3bd4 6ebe
000002a0: c242 79bf 24c0 c5be 74e1 ae3e eb43 e93e
000002b0: 58db ef3e 0157 bf3d 4c6b 4d3c f728 71be
000002c0: d0a2 0a3e 2e40 193f 8e8f 443e 5716 4ebe
000002d0: e54c a93e 18e4 963e c48b 91be 1738 57be
000002e0: aa8b e93b 65a1 e3bd 8c1f 023e 9ff7 e13c
000002f0: 2621 333e ad42 94bd 469f d13c 9700 d83d
00000300: 5ecf 2f3e e46b 54be 51c6 1f3e 52f9 0a3e
00000310: 93b6 9bbd 50e2 973e 54b8 953e ce9e 0fbf
00000320: e4b5 1cbf 8d0b cebe d760 383e 6d99 bfbd
00000330: d98b 533e 9f02 90be a5a3 f6be ff22 ff3d
00000340: 98fb 42be 68ee 4dbd 974b c6bc f980 a0be
00000350: 6e15 443f 29b3 173d 766c 8abd 64ab d4be
00000360: 92df edbe d6cd 16ba 534c ad3e 1e59 0ebe
00000370: 368f 903d f53f edbd 4f54 1ebf 9f3d b83e
00000380: 7cc5 06bf 584b 20bd 6308 9d3e 9bea 55be
00000390: 98a8 e83b c3d8 56be 8f40 a53e 1bb7 e7be
000003a0: 211a 9c3e ddba f6be 8354 823e 931d fabd
000003b0: 0d2f c83e a4d3 b7bb 1d6e c73e 43b9 603e
000003c0: fbbb 143e 4fcc dfbe 7cf5 b33d c8d4 05be
000003d0: e62a 6cbe ebb4 883e 084d 153f 0bdd eabe
000003e0: 78e1 c6bc a4c3 7bbe 6304 933a 010c 8b3d
000003f0: 1e0f ffbd e441 dfbe dd22 b43e cdd3 e33d

head.16.bias_ih_l0 f4 [96]
-0.019107625 -0.02060206 0.08086891 -0.24532111 -0.084740356 -0.09631488 -0.012145142 -0.13683593
-0.14726104 0.09246181 -0.13687482 0.054339584 -0.07646571 0.019330692 -0.09666086 0.039347734
0.062170446 -0.17004427 -0.04382466 -0.11215915 -0.22452188 -0.010161023 -0.025859239 -0.019080747
0.010307834 -0.15798634 0.056071326 -0.016918143 -0.042481106 -0.16113126 -0.10854266 -0.15172864
0.4621997 0.14116599 0.5745599 0.3695515 -0.034899995 0.61331797 0.3367979 0.2485127
0.123451725 0.48911822 0.31279698 0.0396954 0.10205341 0.16486411 0.35668346 0.64245534
0.23021354 0.46814513 -0.052858282 -0.024090178 0.21936768 -0.009519639 0.38819823 0.30716795
0.4740015 0.2898147 0.0036078002 0.5588137 0.08780378 0.10240942 0.35562953 0.032780625
-0.044590425 -0.025296979 -0.039857443 0.01800172 0.016060952 0.033130452 -0.06651821 -0.00038364885
0.07469163 -0.1130378 0.10896589 -0.053612325 -0.027393306 0.111385964 -0.10519908 -0.08695062
-0.08055321 -0.017678285 -0.03496908 0.061408207 0.14484027 -0.010025575 0.17149763 0.0017600807
0.06775864 0.44217306 -0.014098177 -0.12539971 -0.05387307 0.100729026 0.0687951 -0.067497656
00000000: 9887 9cbc a7c5 a8bc 999e a53d 7535 7bbe
00000010: 5a8c adbd bc40 c5bd 6bfc 46bc b81e 0cbe
00000020: 99cb 16be 9e5c bd3d ea28 0cbe 2f93 5e3d
00000030: 0e9a 9cbd 665b 9e3c 21f6 c5bd 172b 213d
00000040: 70a6 7e3d 1620 2ebe 7d81 33bd b2b3 e5bd
00000050: 10e9 65be 6b7a 26bc c1d6 d3bc 3a4f 9cbc
00000060: 30e2 283c 2cc7 21be 0cab 653d eb97 8abc
00000070: ab00 2ebd 98ff 24be 9d4b debd c15e 1bbe
00000080: 70a5 ec3e d18d 103e 5c16 133f db35 bd3e
00000090: 4cf3 0ebd 6802 1d3f c670 ac3e 1d7a 7e3e
000000a0: 42d4 fc3d b46d fa3e ed26 a03e a597 223d
000000b0: 6101 d13d 23d2 283e 379f b63e f477 243f
000000c0: 19bd 6b3e b8b0 ef3e ed81 58bd c458 c5bc
000000d0: eca1 603e 43f8 1bbc ebc1 c63e 1e45 9d3e
000000e0: 53b0 f23e 9862 943e d870 6c3b 6a0e 0f3f
000000f0: 78d2 b33d 08bc d13d 1315 b63e fa44 063d
00000100: 73a4 36bd 9c3b cfbc 8f41 23bd 5878 933c
00000110: 4292 833c ccb3 073d b33a 88bd 7a24 c9b9
00000120: edf7 983d 5d80 e7bd 8229 df3d 9998 5bbd
00000130: ed67 e0bc 531e e43d 9e72 d7bd 2b13 b2bd
00000140: 15f9 a4bd 0dd2 90bc bd3b 0fbd 2c87 7b3d
00000150: 0251 143e 4f42 24bc 139d 2f3e 82b2 e63a
00000160: 0bc5 8a3d 8264 e23e 0afc 66bc c868 00be
00000170: 02aa 5cbd 054b ce3d 72e4 8c3d 363c 8abd

head.16.bias_hh_l0 f4 [96]
-0.016981997 -0.01983643 0.08187984 -0.24499817 -0.08374687 -0.0958246 -0.01323939 -0.13668023
-0.14757876 0.0918709 -0.13556068 0.054402232 -0.07643605 0.019528667 -0.095167495 0.039165586
0.061798852 -0.16976127 -0.0421941 -0.112231374 -0.2249431 -0.011224911 -0.026202204 -0.020912087
0.010716346 -0.15850852 0.056735173 -0.01581191 -0.0417684 -0.15955961 -0.11006515 -0.15216023
0.46241426 0.1394693 0.57398015 0.36988783 -0.03534516 0.6138475 0.3355208 0.2486807
0.1213316 0.48863807 0.31284055 0.03910163 0.10028782 0.16635014 0.35589185 0.64235324
0.23037328 0.46775365 -0.052535143 -0.023917012 0.2208276 -0.00994346 0.38731533 0.30718327
0.47438276 0.28941762 0.004794462 0.55991536 0.08670058 0.10250835 0.35605168 0.033452205
-0.11264787 -0.033766393 -0.10266577 -0.03864335 -0.12149422 -0.033898868 0.040478047 -0.19464631
-0.18909626 0.0916132 0.00639729 -0.35109052 -0.12589452 0.04137224 -0.1346138 -0.11117092
-0.039018475 -0.06680521 -0.16386667 0.17968804 0.1400935 0.16480155 0.16146289 -0.058482062
-0.16595247 0.09125227 0.1041329 -0.16947906 -0.01055952 -0.027562723 -0.09822425 0.0024530473
00000000: d41d 8bbc 0280 a2bc 9eb0 a73d cde0 7abe
00000010: 7b83 abbd b03f c4bd 07ea 58bc e7f5 0bbe
00000020: e31e 17be cf26 bc3d 6bd0 0abe e0d4 5e3d
00000030: 818a 9cbd 95fa 9f3c 2de7 c2bd 186c 203d
00000040: cb20 7d3d e6d5 2dbe b8d3 2cbd 90d9 e5bd
00000050: 7c57 66be b0e8 37bc 01a6 d6bc d34f abbc
00000060: 9d93 2f3c 0f50 22be 2463 683d fb87 81bc
00000070: 5815 2bbd 9863 23be d669 e1bd e4cf 1bbe
00000080: 90c1 ec3e 0ad1 0e3e 5df0 123f f061 bd3e
00000090: 16c6 10bd 1c25 1d3f 62c9 ab3e 27a6 7e3e
000000a0: b47c f83d c52e fa3e a32c a03e 0829 203d
000000b0: b363 cd3d b157 2a3e 7537 b63e 4371 243f
000000c0: f9e6 6b3e 687d ef3e 172f 57bd 9ced c3bc
000000d0: a120 623e e5e9 22bc 324e c63e 2047 9d3e
000000e0: 4ce2 f23e 8c2e 943e dd1a 9d3b 9d56 0f3f
000000f0: 1390 b13d e6ef d13d 684c b63e 2e05 093d
00000100: edb3 e6bd a14e 0abd 6e42 d2bd 7d48 1ebd
00000110: f6d1 f8bd 8ad9 0abd 4fcc 253d 5d51 47be
00000120: 73a2 41be b49f bb3d 5ca0 d13b 23c2 b3be
00000130: 7eea 00be f075 293d 33d8 09be 94ad e3bd
00000140: d6d1 1fbd 2cd1 88bd aacc 27be 2400 383e
00000150: ac74 0f3e bdc1 283e 8756 253e e38a 6fbd
00000160: 72ef 29be 78e2 ba3d a143 d53d eb8b 2dbe
00000170: d601 2dbc 38cb e1bc cc29 c9bd 4ec3 203b
